{
  "nodes": [
    {
      "op": "null", 
      "name": "timeFeaturesPred", 
      "inputs": []
    }, 
    {
      "op": "SliceChannel", 
      "name": "dec_input_seq", 
      "attrs": {
        "axis": "2", 
        "num_outputs": "7", 
        "squeeze_axis": "True"
      }, 
      "inputs": [[0, 0, 0]]
    }, 
    {
      "op": "repeat", 
      "name": "repeat1128", 
      "attrs": {
        "axis": "0", 
        "repeats": "100"
      }, 
      "inputs": [[1, 0, 0]]
    }, 
    {
      "op": "null", 
      "name": "itemFeatures", 
      "inputs": []
    }, 
    {
      "op": "SliceChannel", 
      "name": "item_features_categorical_seq", 
      "attrs": {
        "axis": "1", 
        "num_outputs": "1", 
        "squeeze_axis": "True"
      }, 
      "inputs": [[3, 0, 0]]
    }, 
    {
      "op": "null", 
      "name": "embed_0_weight", 
      "inputs": []
    }, 
    {
      "op": "Embedding", 
      "name": "item_embed_0", 
      "attrs": {
        "input_dim": "1", 
        "output_dim": "10"
      }, 
      "inputs": [[4, 0, 0], [5, 0, 0]]
    }, 
    {
      "op": "Concat", 
      "name": "item_inputs_embed", 
      "attrs": {
        "dim": "1", 
        "num_args": "1"
      }, 
      "inputs": [[6, 0, 0]]
    }, 
    {
      "op": "null", 
      "name": "trainTarget", 
      "inputs": []
    }, 
    {
      "op": "expand_dims", 
      "name": "expand_dims6", 
      "attrs": {"axis": "2"}, 
      "inputs": [[8, 0, 0]]
    }, 
    {
      "op": "SliceChannel", 
      "name": "trainTarget_seq", 
      "attrs": {
        "axis": "1", 
        "num_outputs": "1123", 
        "squeeze_axis": "True"
      }, 
      "inputs": [[9, 0, 0]]
    }, 
    {
      "op": "Concat", 
      "name": "concat80", 
      "attrs": {
        "dim": "1", 
        "num_args": "30"
      }, 
      "inputs": [
        [10, 1093, 0], 
        [10, 1094, 0], 
        [10, 1095, 0], 
        [10, 1096, 0], 
        [10, 1097, 0], 
        [10, 1098, 0], 
        [10, 1099, 0], 
        [10, 1100, 0], 
        [10, 1101, 0], 
        [10, 1102, 0], 
        [10, 1103, 0], 
        [10, 1104, 0], 
        [10, 1105, 0], 
        [10, 1106, 0], 
        [10, 1107, 0], 
        [10, 1108, 0], 
        [10, 1109, 0], 
        [10, 1110, 0], 
        [10, 1111, 0], 
        [10, 1112, 0], 
        [10, 1113, 0], 
        [10, 1114, 0], 
        [10, 1115, 0], 
        [10, 1116, 0], 
        [10, 1117, 0], 
        [10, 1118, 0], 
        [10, 1119, 0], 
        [10, 1120, 0], 
        [10, 1121, 0], 
        [10, 1122, 0]
      ]
    }, 
    {
      "op": "abs", 
      "name": "abs1", 
      "inputs": [[11, 0, 0]]
    }, 
    {
      "op": "null", 
      "name": "observedValuesTrain", 
      "inputs": []
    }, 
    {
      "op": "expand_dims", 
      "name": "expand_dims9", 
      "attrs": {"axis": "2"}, 
      "inputs": [[13, 0, 0]]
    }, 
    {
      "op": "SliceChannel", 
      "name": "observedValuesTrain_seq", 
      "attrs": {
        "axis": "1", 
        "num_outputs": "1123", 
        "squeeze_axis": "True"
      }, 
      "inputs": [[14, 0, 0]]
    }, 
    {
      "op": "Concat", 
      "name": "concat81", 
      "attrs": {
        "dim": "1", 
        "num_args": "30"
      }, 
      "inputs": [
        [15, 1093, 0], 
        [15, 1094, 0], 
        [15, 1095, 0], 
        [15, 1096, 0], 
        [15, 1097, 0], 
        [15, 1098, 0], 
        [15, 1099, 0], 
        [15, 1100, 0], 
        [15, 1101, 0], 
        [15, 1102, 0], 
        [15, 1103, 0], 
        [15, 1104, 0], 
        [15, 1105, 0], 
        [15, 1106, 0], 
        [15, 1107, 0], 
        [15, 1108, 0], 
        [15, 1109, 0], 
        [15, 1110, 0], 
        [15, 1111, 0], 
        [15, 1112, 0], 
        [15, 1113, 0], 
        [15, 1114, 0], 
        [15, 1115, 0], 
        [15, 1116, 0], 
        [15, 1117, 0], 
        [15, 1118, 0], 
        [15, 1119, 0], 
        [15, 1120, 0], 
        [15, 1121, 0], 
        [15, 1122, 0]
      ]
    }, 
    {
      "op": "elemwise_mul", 
      "name": "_mul563", 
      "inputs": [[12, 0, 0], [16, 0, 0]]
    }, 
    {
      "op": "sum", 
      "name": "sum3", 
      "attrs": {"axis": "1"}, 
      "inputs": [[17, 0, 0]]
    }, 
    {
      "op": "sum", 
      "name": "sum2", 
      "attrs": {"axis": "1"}, 
      "inputs": [[16, 0, 0]]
    }, 
    {
      "op": "zeros_like", 
      "name": "zeros_like105", 
      "inputs": [[19, 0, 0]]
    }, 
    {
      "op": "broadcast_greater", 
      "name": "broadcast_greater1", 
      "inputs": [[18, 0, 0], [20, 0, 0]]
    }, 
    {
      "op": "ones_like", 
      "name": "ones_like150", 
      "inputs": [[19, 0, 0]]
    }, 
    {
      "op": "broadcast_maximum", 
      "name": "broadcast_maximum1", 
      "inputs": [[19, 0, 0], [22, 0, 0]]
    }, 
    {
      "op": "broadcast_div", 
      "name": "broadcast_div38", 
      "inputs": [[18, 0, 0], [23, 0, 0]]
    }, 
    {
      "op": "ones_like", 
      "name": "ones_like151", 
      "inputs": [[24, 0, 0]]
    }, 
    {
      "op": "_mul_scalar", 
      "name": "_mulscalar112", 
      "attrs": {"scalar": "68.92399389757499"}, 
      "inputs": [[25, 0, 0]]
    }, 
    {
      "op": "where", 
      "name": "where336", 
      "inputs": [[21, 0, 0], [24, 0, 0], [26, 0, 0]]
    }, 
    {
      "op": "_maximum_scalar", 
      "name": "_maximumscalar1", 
      "attrs": {"scalar": "1e-10"}, 
      "inputs": [[27, 0, 0]]
    }, 
    {
      "op": "Reshape", 
      "name": "reshape1", 
      "attrs": {"shape": "(-1,)"}, 
      "inputs": [[28, 0, 0]]
    }, 
    {
      "op": "expand_dims", 
      "name": "expand_dims11", 
      "attrs": {"axis": "1"}, 
      "inputs": [[29, 0, 0]]
    }, 
    {
      "op": "log", 
      "name": "log75", 
      "inputs": [[30, 0, 0]]
    }, 
    {
      "op": "Concat", 
      "name": "concat82", 
      "attrs": {
        "dim": "1", 
        "num_args": "2"
      }, 
      "inputs": [[7, 0, 0], [31, 0, 0]]
    }, 
    {
      "op": "repeat", 
      "name": "repeat1129", 
      "attrs": {
        "axis": "0", 
        "repeats": "100"
      }, 
      "inputs": [[32, 0, 0]]
    }, 
    {
      "op": "null", 
      "name": "isPaddedTrain", 
      "inputs": []
    }, 
    {
      "op": "expand_dims", 
      "name": "expand_dims8", 
      "attrs": {"axis": "2"}, 
      "inputs": [[34, 0, 0]]
    }, 
    {
      "op": "SliceChannel", 
      "name": "isPaddedTrain_seq", 
      "attrs": {
        "axis": "1", 
        "num_outputs": "1123", 
        "squeeze_axis": "True"
      }, 
      "inputs": [[35, 0, 0]]
    }, 
    {
      "op": "zeros_like", 
      "name": "zeros_like195", 
      "inputs": [[10, 1122, 0]]
    }, 
    {
      "op": "null", 
      "name": "timeFeaturesTrain", 
      "inputs": []
    }, 
    {
      "op": "SliceChannel", 
      "name": "enc_input_seq", 
      "attrs": {
        "axis": "2", 
        "num_outputs": "1123", 
        "squeeze_axis": "True"
      }, 
      "inputs": [[38, 0, 0]]
    }, 
    {
      "op": "zeros_like", 
      "name": "zeros_like192", 
      "inputs": [[10, 1121, 0]]
    }, 
    {
      "op": "zeros_like", 
      "name": "zeros_like189", 
      "inputs": [[10, 1120, 0]]
    }, 
    {
      "op": "zeros_like", 
      "name": "zeros_like186", 
      "inputs": [[10, 1119, 0]]
    }, 
    {
      "op": "zeros_like", 
      "name": "zeros_like183", 
      "inputs": [[10, 1118, 0]]
    }, 
    {
      "op": "zeros_like", 
      "name": "zeros_like180", 
      "inputs": [[10, 1117, 0]]
    }, 
    {
      "op": "zeros_like", 
      "name": "zeros_like177", 
      "inputs": [[10, 1116, 0]]
    }, 
    {
      "op": "zeros_like", 
      "name": "zeros_like174", 
      "inputs": [[10, 1115, 0]]
    }, 
    {
      "op": "zeros_like", 
      "name": "zeros_like171", 
      "inputs": [[10, 1114, 0]]
    }, 
    {
      "op": "zeros_like", 
      "name": "zeros_like168", 
      "inputs": [[10, 1113, 0]]
    }, 
    {
      "op": "zeros_like", 
      "name": "zeros_like165", 
      "inputs": [[10, 1112, 0]]
    }, 
    {
      "op": "zeros_like", 
      "name": "zeros_like162", 
      "inputs": [[10, 1111, 0]]
    }, 
    {
      "op": "zeros_like", 
      "name": "zeros_like159", 
      "inputs": [[10, 1110, 0]]
    }, 
    {
      "op": "zeros_like", 
      "name": "zeros_like156", 
      "inputs": [[10, 1109, 0]]
    }, 
    {
      "op": "zeros_like", 
      "name": "zeros_like153", 
      "inputs": [[10, 1108, 0]]
    }, 
    {
      "op": "zeros_like", 
      "name": "zeros_like150", 
      "inputs": [[10, 1107, 0]]
    }, 
    {
      "op": "zeros_like", 
      "name": "zeros_like147", 
      "inputs": [[10, 1106, 0]]
    }, 
    {
      "op": "zeros_like", 
      "name": "zeros_like144", 
      "inputs": [[10, 1105, 0]]
    }, 
    {
      "op": "zeros_like", 
      "name": "zeros_like141", 
      "inputs": [[10, 1104, 0]]
    }, 
    {
      "op": "zeros_like", 
      "name": "zeros_like138", 
      "inputs": [[10, 1103, 0]]
    }, 
    {
      "op": "zeros_like", 
      "name": "zeros_like135", 
      "inputs": [[10, 1102, 0]]
    }, 
    {
      "op": "zeros_like", 
      "name": "zeros_like132", 
      "inputs": [[10, 1101, 0]]
    }, 
    {
      "op": "zeros_like", 
      "name": "zeros_like129", 
      "inputs": [[10, 1100, 0]]
    }, 
    {
      "op": "zeros_like", 
      "name": "zeros_like126", 
      "inputs": [[10, 1099, 0]]
    }, 
    {
      "op": "zeros_like", 
      "name": "zeros_like123", 
      "inputs": [[10, 1098, 0]]
    }, 
    {
      "op": "zeros_like", 
      "name": "zeros_like120", 
      "inputs": [[10, 1097, 0]]
    }, 
    {
      "op": "zeros_like", 
      "name": "zeros_like117", 
      "inputs": [[10, 1096, 0]]
    }, 
    {
      "op": "zeros_like", 
      "name": "zeros_like114", 
      "inputs": [[10, 1095, 0]]
    }, 
    {
      "op": "zeros_like", 
      "name": "zeros_like111", 
      "inputs": [[10, 1094, 0]]
    }, 
    {
      "op": "zeros_like", 
      "name": "zeros_like108", 
      "inputs": [[10, 1093, 0]]
    }, 
    {
      "op": "Concat", 
      "name": "concat83", 
      "attrs": {
        "dim": "1", 
        "num_args": "30"
      }, 
      "inputs": [
        [10, 1092, 0], 
        [10, 1091, 0], 
        [10, 1090, 0], 
        [10, 1089, 0], 
        [10, 1088, 0], 
        [10, 1087, 0], 
        [10, 1086, 0], 
        [10, 1085, 0], 
        [10, 1080, 0], 
        [10, 1079, 0], 
        [10, 1078, 0], 
        [10, 1073, 0], 
        [10, 1072, 0], 
        [10, 1071, 0], 
        [10, 1066, 0], 
        [10, 1065, 0], 
        [10, 1064, 0], 
        [10, 1063, 0], 
        [10, 1062, 0], 
        [10, 1037, 0], 
        [10, 1009, 0], 
        [10, 730, 0], 
        [10, 729, 0], 
        [10, 728, 0], 
        [10, 366, 0], 
        [10, 365, 0], 
        [10, 364, 0], 
        [10, 2, 0], 
        [10, 1, 0], 
        [10, 0, 0]
      ]
    }, 
    {
      "op": "broadcast_div", 
      "name": "broadcast_div39", 
      "inputs": [[69, 0, 0], [30, 0, 0]]
    }, 
    {
      "op": "Concat", 
      "name": "concat84", 
      "attrs": {
        "dim": "1", 
        "num_args": "3"
      }, 
      "inputs": [[39, 1093, 0], [32, 0, 0], [70, 0, 0]]
    }, 
    {
      "op": "null", 
      "name": "lstm_l_0i2h_weight", 
      "inputs": []
    }, 
    {
      "op": "null", 
      "name": "lstm_l_0i2h_bias", 
      "attrs": {"__init__": "[\"lstmbias\", {\"forget_bias\": 1.0}]"}, 
      "inputs": []
    }, 
    {
      "op": "FullyConnected", 
      "name": "lstm_l_0t0_i2h", 
      "attrs": {"num_hidden": "160"}, 
      "inputs": [[71, 0, 0], [72, 0, 0], [73, 0, 0]]
    }, 
    {
      "op": "_zeros", 
      "name": "lstm_l_0begin_state_0", 
      "attrs": {
        "__layout__": "NC", 
        "dtype": "float32", 
        "shape": "(0, 40)"
      }, 
      "inputs": []
    }, 
    {
      "op": "where", 
      "name": "where337", 
      "inputs": [[36, 1093, 0], [75, 0, 0], [75, 0, 0]]
    }, 
    {
      "op": "null", 
      "name": "lstm_l_0h2h_weight", 
      "inputs": []
    }, 
    {
      "op": "null", 
      "name": "lstm_l_0h2h_bias", 
      "inputs": []
    }, 
    {
      "op": "FullyConnected", 
      "name": "lstm_l_0t0_h2h", 
      "attrs": {"num_hidden": "160"}, 
      "inputs": [[76, 0, 0], [77, 0, 0], [78, 0, 0]]
    }, 
    {
      "op": "elemwise_add", 
      "name": "_plus148", 
      "inputs": [[74, 0, 0], [79, 0, 0]]
    }, 
    {
      "op": "SliceChannel", 
      "name": "lstm_l_0t0_slice", 
      "attrs": {"num_outputs": "4"}, 
      "inputs": [[80, 0, 0]]
    }, 
    {
      "op": "Activation", 
      "name": "lstm_l_0t0_o", 
      "attrs": {"act_type": "sigmoid"}, 
      "inputs": [[81, 3, 0]]
    }, 
    {
      "op": "Activation", 
      "name": "lstm_l_0t0_f", 
      "attrs": {"act_type": "sigmoid"}, 
      "inputs": [[81, 1, 0]]
    }, 
    {
      "op": "_zeros", 
      "name": "lstm_l_0begin_state_1", 
      "attrs": {
        "__layout__": "NC", 
        "dtype": "float32", 
        "shape": "(0, 40)"
      }, 
      "inputs": []
    }, 
    {
      "op": "where", 
      "name": "where338", 
      "inputs": [[36, 1093, 0], [84, 0, 0], [84, 0, 0]]
    }, 
    {
      "op": "elemwise_mul", 
      "name": "_mul564", 
      "inputs": [[83, 0, 0], [85, 0, 0]]
    }, 
    {
      "op": "Activation", 
      "name": "lstm_l_0t0_i", 
      "attrs": {"act_type": "sigmoid"}, 
      "inputs": [[81, 0, 0]]
    }, 
    {
      "op": "Activation", 
      "name": "lstm_l_0t0_c", 
      "attrs": {"act_type": "tanh"}, 
      "inputs": [[81, 2, 0]]
    }, 
    {
      "op": "elemwise_mul", 
      "name": "_mul565", 
      "inputs": [[87, 0, 0], [88, 0, 0]]
    }, 
    {
      "op": "elemwise_add", 
      "name": "lstm_l_0t0_state", 
      "inputs": [[86, 0, 0], [89, 0, 0]]
    }, 
    {
      "op": "Activation", 
      "name": "activation148", 
      "attrs": {"act_type": "tanh"}, 
      "inputs": [[90, 0, 0]]
    }, 
    {
      "op": "elemwise_mul", 
      "name": "lstm_l_0t0_out", 
      "inputs": [[82, 0, 0], [91, 0, 0]]
    }, 
    {
      "op": "null", 
      "name": "lstm_l_1i2h_weight", 
      "inputs": []
    }, 
    {
      "op": "null", 
      "name": "lstm_l_1i2h_bias", 
      "attrs": {"__init__": "[\"lstmbias\", {\"forget_bias\": 1.0}]"}, 
      "inputs": []
    }, 
    {
      "op": "FullyConnected", 
      "name": "lstm_l_1t0_i2h", 
      "attrs": {"num_hidden": "160"}, 
      "inputs": [[92, 0, 0], [93, 0, 0], [94, 0, 0]]
    }, 
    {
      "op": "_zeros", 
      "name": "lstm_l_1begin_state_0", 
      "attrs": {
        "__layout__": "NC", 
        "dtype": "float32", 
        "shape": "(0, 40)"
      }, 
      "inputs": []
    }, 
    {
      "op": "where", 
      "name": "where339", 
      "inputs": [[36, 1093, 0], [96, 0, 0], [96, 0, 0]]
    }, 
    {
      "op": "null", 
      "name": "lstm_l_1h2h_weight", 
      "inputs": []
    }, 
    {
      "op": "null", 
      "name": "lstm_l_1h2h_bias", 
      "inputs": []
    }, 
    {
      "op": "FullyConnected", 
      "name": "lstm_l_1t0_h2h", 
      "attrs": {"num_hidden": "160"}, 
      "inputs": [[97, 0, 0], [98, 0, 0], [99, 0, 0]]
    }, 
    {
      "op": "elemwise_add", 
      "name": "_plus149", 
      "inputs": [[95, 0, 0], [100, 0, 0]]
    }, 
    {
      "op": "SliceChannel", 
      "name": "lstm_l_1t0_slice", 
      "attrs": {"num_outputs": "4"}, 
      "inputs": [[101, 0, 0]]
    }, 
    {
      "op": "Activation", 
      "name": "lstm_l_1t0_o", 
      "attrs": {"act_type": "sigmoid"}, 
      "inputs": [[102, 3, 0]]
    }, 
    {
      "op": "Activation", 
      "name": "lstm_l_1t0_f", 
      "attrs": {"act_type": "sigmoid"}, 
      "inputs": [[102, 1, 0]]
    }, 
    {
      "op": "_zeros", 
      "name": "lstm_l_1begin_state_1", 
      "attrs": {
        "__layout__": "NC", 
        "dtype": "float32", 
        "shape": "(0, 40)"
      }, 
      "inputs": []
    }, 
    {
      "op": "where", 
      "name": "where340", 
      "inputs": [[36, 1093, 0], [105, 0, 0], [105, 0, 0]]
    }, 
    {
      "op": "elemwise_mul", 
      "name": "_mul566", 
      "inputs": [[104, 0, 0], [106, 0, 0]]
    }, 
    {
      "op": "Activation", 
      "name": "lstm_l_1t0_i", 
      "attrs": {"act_type": "sigmoid"}, 
      "inputs": [[102, 0, 0]]
    }, 
    {
      "op": "Activation", 
      "name": "lstm_l_1t0_c", 
      "attrs": {"act_type": "tanh"}, 
      "inputs": [[102, 2, 0]]
    }, 
    {
      "op": "elemwise_mul", 
      "name": "_mul567", 
      "inputs": [[108, 0, 0], [109, 0, 0]]
    }, 
    {
      "op": "elemwise_add", 
      "name": "lstm_l_1t0_state", 
      "inputs": [[107, 0, 0], [110, 0, 0]]
    }, 
    {
      "op": "Activation", 
      "name": "activation149", 
      "attrs": {"act_type": "tanh"}, 
      "inputs": [[111, 0, 0]]
    }, 
    {
      "op": "elemwise_mul", 
      "name": "lstm_l_1t0_out", 
      "inputs": [[103, 0, 0], [112, 0, 0]]
    }, 
    {
      "op": "elemwise_add", 
      "name": "lstm_l_1t0_out_plus_residual", 
      "inputs": [[113, 0, 0], [92, 0, 0]]
    }, 
    {
      "op": "null", 
      "name": "mu_Noneproj_weight", 
      "inputs": []
    }, 
    {
      "op": "null", 
      "name": "mu_Noneproj_bias", 
      "inputs": []
    }, 
    {
      "op": "FullyConnected", 
      "name": "fullyconnected111", 
      "attrs": {"num_hidden": "1"}, 
      "inputs": [[114, 0, 0], [115, 0, 0], [116, 0, 0]]
    }, 
    {
      "op": "elemwise_mul", 
      "name": "_mul574", 
      "inputs": [[117, 0, 0], [30, 0, 0]]
    }, 
    {
      "op": "where", 
      "name": "where345", 
      "inputs": [[36, 1093, 0], [68, 0, 0], [118, 0, 0]]
    }, 
    {
      "op": "where", 
      "name": "where346", 
      "inputs": [[15, 1093, 0], [10, 1093, 0], [119, 0, 0]]
    }, 
    {
      "op": "Concat", 
      "name": "concat85", 
      "attrs": {
        "dim": "1", 
        "num_args": "30"
      }, 
      "inputs": [
        [120, 0, 0], 
        [10, 1092, 0], 
        [10, 1091, 0], 
        [10, 1090, 0], 
        [10, 1089, 0], 
        [10, 1088, 0], 
        [10, 1087, 0], 
        [10, 1086, 0], 
        [10, 1081, 0], 
        [10, 1080, 0], 
        [10, 1079, 0], 
        [10, 1074, 0], 
        [10, 1073, 0], 
        [10, 1072, 0], 
        [10, 1067, 0], 
        [10, 1066, 0], 
        [10, 1065, 0], 
        [10, 1064, 0], 
        [10, 1063, 0], 
        [10, 1038, 0], 
        [10, 1010, 0], 
        [10, 731, 0], 
        [10, 730, 0], 
        [10, 729, 0], 
        [10, 367, 0], 
        [10, 366, 0], 
        [10, 365, 0], 
        [10, 3, 0], 
        [10, 2, 0], 
        [10, 1, 0]
      ]
    }, 
    {
      "op": "broadcast_div", 
      "name": "broadcast_div40", 
      "inputs": [[121, 0, 0], [30, 0, 0]]
    }, 
    {
      "op": "Concat", 
      "name": "concat86", 
      "attrs": {
        "dim": "1", 
        "num_args": "3"
      }, 
      "inputs": [[39, 1094, 0], [32, 0, 0], [122, 0, 0]]
    }, 
    {
      "op": "FullyConnected", 
      "name": "lstm_l_0t1_i2h", 
      "attrs": {"num_hidden": "160"}, 
      "inputs": [[123, 0, 0], [72, 0, 0], [73, 0, 0]]
    }, 
    {
      "op": "ones_like", 
      "name": "ones_like152", 
      "inputs": [[92, 0, 0]]
    }, 
    {
      "op": "Dropout", 
      "name": "dropout148", 
      "attrs": {"p": "0.1"}, 
      "inputs": [[125, 0, 0]]
    }, 
    {
      "op": "where", 
      "name": "where341", 
      "inputs": [[126, 0, 0], [92, 0, 0], [76, 0, 0]]
    }, 
    {
      "op": "where", 
      "name": "where347", 
      "inputs": [[36, 1094, 0], [75, 0, 0], [127, 0, 0]]
    }, 
    {
      "op": "FullyConnected", 
      "name": "lstm_l_0t1_h2h", 
      "attrs": {"num_hidden": "160"}, 
      "inputs": [[128, 0, 0], [77, 0, 0], [78, 0, 0]]
    }, 
    {
      "op": "elemwise_add", 
      "name": "_plus152", 
      "inputs": [[124, 0, 0], [129, 0, 0]]
    }, 
    {
      "op": "SliceChannel", 
      "name": "lstm_l_0t1_slice", 
      "attrs": {"num_outputs": "4"}, 
      "inputs": [[130, 0, 0]]
    }, 
    {
      "op": "Activation", 
      "name": "lstm_l_0t1_o", 
      "attrs": {"act_type": "sigmoid"}, 
      "inputs": [[131, 3, 0]]
    }, 
    {
      "op": "Activation", 
      "name": "lstm_l_0t1_f", 
      "attrs": {"act_type": "sigmoid"}, 
      "inputs": [[131, 1, 0]]
    }, 
    {
      "op": "ones_like", 
      "name": "ones_like153", 
      "inputs": [[90, 0, 0]]
    }, 
    {
      "op": "Dropout", 
      "name": "dropout149", 
      "attrs": {"p": "0.1"}, 
      "inputs": [[134, 0, 0]]
    }, 
    {
      "op": "where", 
      "name": "where342", 
      "inputs": [[135, 0, 0], [90, 0, 0], [85, 0, 0]]
    }, 
    {
      "op": "where", 
      "name": "where348", 
      "inputs": [[36, 1094, 0], [84, 0, 0], [136, 0, 0]]
    }, 
    {
      "op": "elemwise_mul", 
      "name": "_mul579", 
      "inputs": [[133, 0, 0], [137, 0, 0]]
    }, 
    {
      "op": "Activation", 
      "name": "lstm_l_0t1_i", 
      "attrs": {"act_type": "sigmoid"}, 
      "inputs": [[131, 0, 0]]
    }, 
    {
      "op": "Activation", 
      "name": "lstm_l_0t1_c", 
      "attrs": {"act_type": "tanh"}, 
      "inputs": [[131, 2, 0]]
    }, 
    {
      "op": "elemwise_mul", 
      "name": "_mul580", 
      "inputs": [[139, 0, 0], [140, 0, 0]]
    }, 
    {
      "op": "elemwise_add", 
      "name": "lstm_l_0t1_state", 
      "inputs": [[138, 0, 0], [141, 0, 0]]
    }, 
    {
      "op": "Activation", 
      "name": "activation152", 
      "attrs": {"act_type": "tanh"}, 
      "inputs": [[142, 0, 0]]
    }, 
    {
      "op": "elemwise_mul", 
      "name": "lstm_l_0t1_out", 
      "inputs": [[132, 0, 0], [143, 0, 0]]
    }, 
    {
      "op": "FullyConnected", 
      "name": "lstm_l_1t1_i2h", 
      "attrs": {"num_hidden": "160"}, 
      "inputs": [[144, 0, 0], [93, 0, 0], [94, 0, 0]]
    }, 
    {
      "op": "ones_like", 
      "name": "ones_like154", 
      "inputs": [[113, 0, 0]]
    }, 
    {
      "op": "Dropout", 
      "name": "dropout150", 
      "attrs": {"p": "0.1"}, 
      "inputs": [[146, 0, 0]]
    }, 
    {
      "op": "where", 
      "name": "where343", 
      "inputs": [[147, 0, 0], [113, 0, 0], [97, 0, 0]]
    }, 
    {
      "op": "where", 
      "name": "where349", 
      "inputs": [[36, 1094, 0], [96, 0, 0], [148, 0, 0]]
    }, 
    {
      "op": "FullyConnected", 
      "name": "lstm_l_1t1_h2h", 
      "attrs": {"num_hidden": "160"}, 
      "inputs": [[149, 0, 0], [98, 0, 0], [99, 0, 0]]
    }, 
    {
      "op": "elemwise_add", 
      "name": "_plus153", 
      "inputs": [[145, 0, 0], [150, 0, 0]]
    }, 
    {
      "op": "SliceChannel", 
      "name": "lstm_l_1t1_slice", 
      "attrs": {"num_outputs": "4"}, 
      "inputs": [[151, 0, 0]]
    }, 
    {
      "op": "Activation", 
      "name": "lstm_l_1t1_o", 
      "attrs": {"act_type": "sigmoid"}, 
      "inputs": [[152, 3, 0]]
    }, 
    {
      "op": "Activation", 
      "name": "lstm_l_1t1_f", 
      "attrs": {"act_type": "sigmoid"}, 
      "inputs": [[152, 1, 0]]
    }, 
    {
      "op": "ones_like", 
      "name": "ones_like155", 
      "inputs": [[111, 0, 0]]
    }, 
    {
      "op": "Dropout", 
      "name": "dropout151", 
      "attrs": {"p": "0.1"}, 
      "inputs": [[155, 0, 0]]
    }, 
    {
      "op": "where", 
      "name": "where344", 
      "inputs": [[156, 0, 0], [111, 0, 0], [106, 0, 0]]
    }, 
    {
      "op": "where", 
      "name": "where350", 
      "inputs": [[36, 1094, 0], [105, 0, 0], [157, 0, 0]]
    }, 
    {
      "op": "elemwise_mul", 
      "name": "_mul581", 
      "inputs": [[154, 0, 0], [158, 0, 0]]
    }, 
    {
      "op": "Activation", 
      "name": "lstm_l_1t1_i", 
      "attrs": {"act_type": "sigmoid"}, 
      "inputs": [[152, 0, 0]]
    }, 
    {
      "op": "Activation", 
      "name": "lstm_l_1t1_c", 
      "attrs": {"act_type": "tanh"}, 
      "inputs": [[152, 2, 0]]
    }, 
    {
      "op": "elemwise_mul", 
      "name": "_mul582", 
      "inputs": [[160, 0, 0], [161, 0, 0]]
    }, 
    {
      "op": "elemwise_add", 
      "name": "lstm_l_1t1_state", 
      "inputs": [[159, 0, 0], [162, 0, 0]]
    }, 
    {
      "op": "Activation", 
      "name": "activation153", 
      "attrs": {"act_type": "tanh"}, 
      "inputs": [[163, 0, 0]]
    }, 
    {
      "op": "elemwise_mul", 
      "name": "lstm_l_1t1_out", 
      "inputs": [[153, 0, 0], [164, 0, 0]]
    }, 
    {
      "op": "elemwise_add", 
      "name": "lstm_l_1t1_out_plus_residual", 
      "inputs": [[165, 0, 0], [144, 0, 0]]
    }, 
    {
      "op": "FullyConnected", 
      "name": "fullyconnected114", 
      "attrs": {"num_hidden": "1"}, 
      "inputs": [[166, 0, 0], [115, 0, 0], [116, 0, 0]]
    }, 
    {
      "op": "elemwise_mul", 
      "name": "_mul589", 
      "inputs": [[167, 0, 0], [30, 0, 0]]
    }, 
    {
      "op": "where", 
      "name": "where355", 
      "inputs": [[36, 1094, 0], [67, 0, 0], [168, 0, 0]]
    }, 
    {
      "op": "where", 
      "name": "where356", 
      "inputs": [[15, 1094, 0], [10, 1094, 0], [169, 0, 0]]
    }, 
    {
      "op": "Concat", 
      "name": "concat87", 
      "attrs": {
        "dim": "1", 
        "num_args": "30"
      }, 
      "inputs": [
        [170, 0, 0], 
        [120, 0, 0], 
        [10, 1092, 0], 
        [10, 1091, 0], 
        [10, 1090, 0], 
        [10, 1089, 0], 
        [10, 1088, 0], 
        [10, 1087, 0], 
        [10, 1082, 0], 
        [10, 1081, 0], 
        [10, 1080, 0], 
        [10, 1075, 0], 
        [10, 1074, 0], 
        [10, 1073, 0], 
        [10, 1068, 0], 
        [10, 1067, 0], 
        [10, 1066, 0], 
        [10, 1065, 0], 
        [10, 1064, 0], 
        [10, 1039, 0], 
        [10, 1011, 0], 
        [10, 732, 0], 
        [10, 731, 0], 
        [10, 730, 0], 
        [10, 368, 0], 
        [10, 367, 0], 
        [10, 366, 0], 
        [10, 4, 0], 
        [10, 3, 0], 
        [10, 2, 0]
      ]
    }, 
    {
      "op": "broadcast_div", 
      "name": "broadcast_div41", 
      "inputs": [[171, 0, 0], [30, 0, 0]]
    }, 
    {
      "op": "Concat", 
      "name": "concat88", 
      "attrs": {
        "dim": "1", 
        "num_args": "3"
      }, 
      "inputs": [[39, 1095, 0], [32, 0, 0], [172, 0, 0]]
    }, 
    {
      "op": "FullyConnected", 
      "name": "lstm_l_0t2_i2h", 
      "attrs": {"num_hidden": "160"}, 
      "inputs": [[173, 0, 0], [72, 0, 0], [73, 0, 0]]
    }, 
    {
      "op": "ones_like", 
      "name": "ones_like156", 
      "inputs": [[144, 0, 0]]
    }, 
    {
      "op": "Dropout", 
      "name": "dropout152", 
      "attrs": {"p": "0.1"}, 
      "inputs": [[175, 0, 0]]
    }, 
    {
      "op": "where", 
      "name": "where351", 
      "inputs": [[176, 0, 0], [144, 0, 0], [128, 0, 0]]
    }, 
    {
      "op": "where", 
      "name": "where357", 
      "inputs": [[36, 1095, 0], [75, 0, 0], [177, 0, 0]]
    }, 
    {
      "op": "FullyConnected", 
      "name": "lstm_l_0t2_h2h", 
      "attrs": {"num_hidden": "160"}, 
      "inputs": [[178, 0, 0], [77, 0, 0], [78, 0, 0]]
    }, 
    {
      "op": "elemwise_add", 
      "name": "_plus156", 
      "inputs": [[174, 0, 0], [179, 0, 0]]
    }, 
    {
      "op": "SliceChannel", 
      "name": "lstm_l_0t2_slice", 
      "attrs": {"num_outputs": "4"}, 
      "inputs": [[180, 0, 0]]
    }, 
    {
      "op": "Activation", 
      "name": "lstm_l_0t2_o", 
      "attrs": {"act_type": "sigmoid"}, 
      "inputs": [[181, 3, 0]]
    }, 
    {
      "op": "Activation", 
      "name": "lstm_l_0t2_f", 
      "attrs": {"act_type": "sigmoid"}, 
      "inputs": [[181, 1, 0]]
    }, 
    {
      "op": "ones_like", 
      "name": "ones_like157", 
      "inputs": [[142, 0, 0]]
    }, 
    {
      "op": "Dropout", 
      "name": "dropout153", 
      "attrs": {"p": "0.1"}, 
      "inputs": [[184, 0, 0]]
    }, 
    {
      "op": "where", 
      "name": "where352", 
      "inputs": [[185, 0, 0], [142, 0, 0], [137, 0, 0]]
    }, 
    {
      "op": "where", 
      "name": "where358", 
      "inputs": [[36, 1095, 0], [84, 0, 0], [186, 0, 0]]
    }, 
    {
      "op": "elemwise_mul", 
      "name": "_mul594", 
      "inputs": [[183, 0, 0], [187, 0, 0]]
    }, 
    {
      "op": "Activation", 
      "name": "lstm_l_0t2_i", 
      "attrs": {"act_type": "sigmoid"}, 
      "inputs": [[181, 0, 0]]
    }, 
    {
      "op": "Activation", 
      "name": "lstm_l_0t2_c", 
      "attrs": {"act_type": "tanh"}, 
      "inputs": [[181, 2, 0]]
    }, 
    {
      "op": "elemwise_mul", 
      "name": "_mul595", 
      "inputs": [[189, 0, 0], [190, 0, 0]]
    }, 
    {
      "op": "elemwise_add", 
      "name": "lstm_l_0t2_state", 
      "inputs": [[188, 0, 0], [191, 0, 0]]
    }, 
    {
      "op": "Activation", 
      "name": "activation156", 
      "attrs": {"act_type": "tanh"}, 
      "inputs": [[192, 0, 0]]
    }, 
    {
      "op": "elemwise_mul", 
      "name": "lstm_l_0t2_out", 
      "inputs": [[182, 0, 0], [193, 0, 0]]
    }, 
    {
      "op": "FullyConnected", 
      "name": "lstm_l_1t2_i2h", 
      "attrs": {"num_hidden": "160"}, 
      "inputs": [[194, 0, 0], [93, 0, 0], [94, 0, 0]]
    }, 
    {
      "op": "ones_like", 
      "name": "ones_like158", 
      "inputs": [[165, 0, 0]]
    }, 
    {
      "op": "Dropout", 
      "name": "dropout154", 
      "attrs": {"p": "0.1"}, 
      "inputs": [[196, 0, 0]]
    }, 
    {
      "op": "where", 
      "name": "where353", 
      "inputs": [[197, 0, 0], [165, 0, 0], [149, 0, 0]]
    }, 
    {
      "op": "where", 
      "name": "where359", 
      "inputs": [[36, 1095, 0], [96, 0, 0], [198, 0, 0]]
    }, 
    {
      "op": "FullyConnected", 
      "name": "lstm_l_1t2_h2h", 
      "attrs": {"num_hidden": "160"}, 
      "inputs": [[199, 0, 0], [98, 0, 0], [99, 0, 0]]
    }, 
    {
      "op": "elemwise_add", 
      "name": "_plus157", 
      "inputs": [[195, 0, 0], [200, 0, 0]]
    }, 
    {
      "op": "SliceChannel", 
      "name": "lstm_l_1t2_slice", 
      "attrs": {"num_outputs": "4"}, 
      "inputs": [[201, 0, 0]]
    }, 
    {
      "op": "Activation", 
      "name": "lstm_l_1t2_o", 
      "attrs": {"act_type": "sigmoid"}, 
      "inputs": [[202, 3, 0]]
    }, 
    {
      "op": "Activation", 
      "name": "lstm_l_1t2_f", 
      "attrs": {"act_type": "sigmoid"}, 
      "inputs": [[202, 1, 0]]
    }, 
    {
      "op": "ones_like", 
      "name": "ones_like159", 
      "inputs": [[163, 0, 0]]
    }, 
    {
      "op": "Dropout", 
      "name": "dropout155", 
      "attrs": {"p": "0.1"}, 
      "inputs": [[205, 0, 0]]
    }, 
    {
      "op": "where", 
      "name": "where354", 
      "inputs": [[206, 0, 0], [163, 0, 0], [158, 0, 0]]
    }, 
    {
      "op": "where", 
      "name": "where360", 
      "inputs": [[36, 1095, 0], [105, 0, 0], [207, 0, 0]]
    }, 
    {
      "op": "elemwise_mul", 
      "name": "_mul596", 
      "inputs": [[204, 0, 0], [208, 0, 0]]
    }, 
    {
      "op": "Activation", 
      "name": "lstm_l_1t2_i", 
      "attrs": {"act_type": "sigmoid"}, 
      "inputs": [[202, 0, 0]]
    }, 
    {
      "op": "Activation", 
      "name": "lstm_l_1t2_c", 
      "attrs": {"act_type": "tanh"}, 
      "inputs": [[202, 2, 0]]
    }, 
    {
      "op": "elemwise_mul", 
      "name": "_mul597", 
      "inputs": [[210, 0, 0], [211, 0, 0]]
    }, 
    {
      "op": "elemwise_add", 
      "name": "lstm_l_1t2_state", 
      "inputs": [[209, 0, 0], [212, 0, 0]]
    }, 
    {
      "op": "Activation", 
      "name": "activation157", 
      "attrs": {"act_type": "tanh"}, 
      "inputs": [[213, 0, 0]]
    }, 
    {
      "op": "elemwise_mul", 
      "name": "lstm_l_1t2_out", 
      "inputs": [[203, 0, 0], [214, 0, 0]]
    }, 
    {
      "op": "elemwise_add", 
      "name": "lstm_l_1t2_out_plus_residual", 
      "inputs": [[215, 0, 0], [194, 0, 0]]
    }, 
    {
      "op": "FullyConnected", 
      "name": "fullyconnected117", 
      "attrs": {"num_hidden": "1"}, 
      "inputs": [[216, 0, 0], [115, 0, 0], [116, 0, 0]]
    }, 
    {
      "op": "elemwise_mul", 
      "name": "_mul604", 
      "inputs": [[217, 0, 0], [30, 0, 0]]
    }, 
    {
      "op": "where", 
      "name": "where365", 
      "inputs": [[36, 1095, 0], [66, 0, 0], [218, 0, 0]]
    }, 
    {
      "op": "where", 
      "name": "where366", 
      "inputs": [[15, 1095, 0], [10, 1095, 0], [219, 0, 0]]
    }, 
    {
      "op": "Concat", 
      "name": "concat89", 
      "attrs": {
        "dim": "1", 
        "num_args": "30"
      }, 
      "inputs": [
        [220, 0, 0], 
        [170, 0, 0], 
        [120, 0, 0], 
        [10, 1092, 0], 
        [10, 1091, 0], 
        [10, 1090, 0], 
        [10, 1089, 0], 
        [10, 1088, 0], 
        [10, 1083, 0], 
        [10, 1082, 0], 
        [10, 1081, 0], 
        [10, 1076, 0], 
        [10, 1075, 0], 
        [10, 1074, 0], 
        [10, 1069, 0], 
        [10, 1068, 0], 
        [10, 1067, 0], 
        [10, 1066, 0], 
        [10, 1065, 0], 
        [10, 1040, 0], 
        [10, 1012, 0], 
        [10, 733, 0], 
        [10, 732, 0], 
        [10, 731, 0], 
        [10, 369, 0], 
        [10, 368, 0], 
        [10, 367, 0], 
        [10, 5, 0], 
        [10, 4, 0], 
        [10, 3, 0]
      ]
    }, 
    {
      "op": "broadcast_div", 
      "name": "broadcast_div42", 
      "inputs": [[221, 0, 0], [30, 0, 0]]
    }, 
    {
      "op": "Concat", 
      "name": "concat90", 
      "attrs": {
        "dim": "1", 
        "num_args": "3"
      }, 
      "inputs": [[39, 1096, 0], [32, 0, 0], [222, 0, 0]]
    }, 
    {
      "op": "FullyConnected", 
      "name": "lstm_l_0t3_i2h", 
      "attrs": {"num_hidden": "160"}, 
      "inputs": [[223, 0, 0], [72, 0, 0], [73, 0, 0]]
    }, 
    {
      "op": "ones_like", 
      "name": "ones_like160", 
      "inputs": [[194, 0, 0]]
    }, 
    {
      "op": "Dropout", 
      "name": "dropout156", 
      "attrs": {"p": "0.1"}, 
      "inputs": [[225, 0, 0]]
    }, 
    {
      "op": "where", 
      "name": "where361", 
      "inputs": [[226, 0, 0], [194, 0, 0], [178, 0, 0]]
    }, 
    {
      "op": "where", 
      "name": "where367", 
      "inputs": [[36, 1096, 0], [75, 0, 0], [227, 0, 0]]
    }, 
    {
      "op": "FullyConnected", 
      "name": "lstm_l_0t3_h2h", 
      "attrs": {"num_hidden": "160"}, 
      "inputs": [[228, 0, 0], [77, 0, 0], [78, 0, 0]]
    }, 
    {
      "op": "elemwise_add", 
      "name": "_plus160", 
      "inputs": [[224, 0, 0], [229, 0, 0]]
    }, 
    {
      "op": "SliceChannel", 
      "name": "lstm_l_0t3_slice", 
      "attrs": {"num_outputs": "4"}, 
      "inputs": [[230, 0, 0]]
    }, 
    {
      "op": "Activation", 
      "name": "lstm_l_0t3_o", 
      "attrs": {"act_type": "sigmoid"}, 
      "inputs": [[231, 3, 0]]
    }, 
    {
      "op": "Activation", 
      "name": "lstm_l_0t3_f", 
      "attrs": {"act_type": "sigmoid"}, 
      "inputs": [[231, 1, 0]]
    }, 
    {
      "op": "ones_like", 
      "name": "ones_like161", 
      "inputs": [[192, 0, 0]]
    }, 
    {
      "op": "Dropout", 
      "name": "dropout157", 
      "attrs": {"p": "0.1"}, 
      "inputs": [[234, 0, 0]]
    }, 
    {
      "op": "where", 
      "name": "where362", 
      "inputs": [[235, 0, 0], [192, 0, 0], [187, 0, 0]]
    }, 
    {
      "op": "where", 
      "name": "where368", 
      "inputs": [[36, 1096, 0], [84, 0, 0], [236, 0, 0]]
    }, 
    {
      "op": "elemwise_mul", 
      "name": "_mul609", 
      "inputs": [[233, 0, 0], [237, 0, 0]]
    }, 
    {
      "op": "Activation", 
      "name": "lstm_l_0t3_i", 
      "attrs": {"act_type": "sigmoid"}, 
      "inputs": [[231, 0, 0]]
    }, 
    {
      "op": "Activation", 
      "name": "lstm_l_0t3_c", 
      "attrs": {"act_type": "tanh"}, 
      "inputs": [[231, 2, 0]]
    }, 
    {
      "op": "elemwise_mul", 
      "name": "_mul610", 
      "inputs": [[239, 0, 0], [240, 0, 0]]
    }, 
    {
      "op": "elemwise_add", 
      "name": "lstm_l_0t3_state", 
      "inputs": [[238, 0, 0], [241, 0, 0]]
    }, 
    {
      "op": "Activation", 
      "name": "activation160", 
      "attrs": {"act_type": "tanh"}, 
      "inputs": [[242, 0, 0]]
    }, 
    {
      "op": "elemwise_mul", 
      "name": "lstm_l_0t3_out", 
      "inputs": [[232, 0, 0], [243, 0, 0]]
    }, 
    {
      "op": "FullyConnected", 
      "name": "lstm_l_1t3_i2h", 
      "attrs": {"num_hidden": "160"}, 
      "inputs": [[244, 0, 0], [93, 0, 0], [94, 0, 0]]
    }, 
    {
      "op": "ones_like", 
      "name": "ones_like162", 
      "inputs": [[215, 0, 0]]
    }, 
    {
      "op": "Dropout", 
      "name": "dropout158", 
      "attrs": {"p": "0.1"}, 
      "inputs": [[246, 0, 0]]
    }, 
    {
      "op": "where", 
      "name": "where363", 
      "inputs": [[247, 0, 0], [215, 0, 0], [199, 0, 0]]
    }, 
    {
      "op": "where", 
      "name": "where369", 
      "inputs": [[36, 1096, 0], [96, 0, 0], [248, 0, 0]]
    }, 
    {
      "op": "FullyConnected", 
      "name": "lstm_l_1t3_h2h", 
      "attrs": {"num_hidden": "160"}, 
      "inputs": [[249, 0, 0], [98, 0, 0], [99, 0, 0]]
    }, 
    {
      "op": "elemwise_add", 
      "name": "_plus161", 
      "inputs": [[245, 0, 0], [250, 0, 0]]
    }, 
    {
      "op": "SliceChannel", 
      "name": "lstm_l_1t3_slice", 
      "attrs": {"num_outputs": "4"}, 
      "inputs": [[251, 0, 0]]
    }, 
    {
      "op": "Activation", 
      "name": "lstm_l_1t3_o", 
      "attrs": {"act_type": "sigmoid"}, 
      "inputs": [[252, 3, 0]]
    }, 
    {
      "op": "Activation", 
      "name": "lstm_l_1t3_f", 
      "attrs": {"act_type": "sigmoid"}, 
      "inputs": [[252, 1, 0]]
    }, 
    {
      "op": "ones_like", 
      "name": "ones_like163", 
      "inputs": [[213, 0, 0]]
    }, 
    {
      "op": "Dropout", 
      "name": "dropout159", 
      "attrs": {"p": "0.1"}, 
      "inputs": [[255, 0, 0]]
    }, 
    {
      "op": "where", 
      "name": "where364", 
      "inputs": [[256, 0, 0], [213, 0, 0], [208, 0, 0]]
    }, 
    {
      "op": "where", 
      "name": "where370", 
      "inputs": [[36, 1096, 0], [105, 0, 0], [257, 0, 0]]
    }, 
    {
      "op": "elemwise_mul", 
      "name": "_mul611", 
      "inputs": [[254, 0, 0], [258, 0, 0]]
    }, 
    {
      "op": "Activation", 
      "name": "lstm_l_1t3_i", 
      "attrs": {"act_type": "sigmoid"}, 
      "inputs": [[252, 0, 0]]
    }, 
    {
      "op": "Activation", 
      "name": "lstm_l_1t3_c", 
      "attrs": {"act_type": "tanh"}, 
      "inputs": [[252, 2, 0]]
    }, 
    {
      "op": "elemwise_mul", 
      "name": "_mul612", 
      "inputs": [[260, 0, 0], [261, 0, 0]]
    }, 
    {
      "op": "elemwise_add", 
      "name": "lstm_l_1t3_state", 
      "inputs": [[259, 0, 0], [262, 0, 0]]
    }, 
    {
      "op": "Activation", 
      "name": "activation161", 
      "attrs": {"act_type": "tanh"}, 
      "inputs": [[263, 0, 0]]
    }, 
    {
      "op": "elemwise_mul", 
      "name": "lstm_l_1t3_out", 
      "inputs": [[253, 0, 0], [264, 0, 0]]
    }, 
    {
      "op": "elemwise_add", 
      "name": "lstm_l_1t3_out_plus_residual", 
      "inputs": [[265, 0, 0], [244, 0, 0]]
    }, 
    {
      "op": "FullyConnected", 
      "name": "fullyconnected120", 
      "attrs": {"num_hidden": "1"}, 
      "inputs": [[266, 0, 0], [115, 0, 0], [116, 0, 0]]
    }, 
    {
      "op": "elemwise_mul", 
      "name": "_mul619", 
      "inputs": [[267, 0, 0], [30, 0, 0]]
    }, 
    {
      "op": "where", 
      "name": "where375", 
      "inputs": [[36, 1096, 0], [65, 0, 0], [268, 0, 0]]
    }, 
    {
      "op": "where", 
      "name": "where376", 
      "inputs": [[15, 1096, 0], [10, 1096, 0], [269, 0, 0]]
    }, 
    {
      "op": "Concat", 
      "name": "concat91", 
      "attrs": {
        "dim": "1", 
        "num_args": "30"
      }, 
      "inputs": [
        [270, 0, 0], 
        [220, 0, 0], 
        [170, 0, 0], 
        [120, 0, 0], 
        [10, 1092, 0], 
        [10, 1091, 0], 
        [10, 1090, 0], 
        [10, 1089, 0], 
        [10, 1084, 0], 
        [10, 1083, 0], 
        [10, 1082, 0], 
        [10, 1077, 0], 
        [10, 1076, 0], 
        [10, 1075, 0], 
        [10, 1070, 0], 
        [10, 1069, 0], 
        [10, 1068, 0], 
        [10, 1067, 0], 
        [10, 1066, 0], 
        [10, 1041, 0], 
        [10, 1013, 0], 
        [10, 734, 0], 
        [10, 733, 0], 
        [10, 732, 0], 
        [10, 370, 0], 
        [10, 369, 0], 
        [10, 368, 0], 
        [10, 6, 0], 
        [10, 5, 0], 
        [10, 4, 0]
      ]
    }, 
    {
      "op": "broadcast_div", 
      "name": "broadcast_div43", 
      "inputs": [[271, 0, 0], [30, 0, 0]]
    }, 
    {
      "op": "Concat", 
      "name": "concat92", 
      "attrs": {
        "dim": "1", 
        "num_args": "3"
      }, 
      "inputs": [[39, 1097, 0], [32, 0, 0], [272, 0, 0]]
    }, 
    {
      "op": "FullyConnected", 
      "name": "lstm_l_0t4_i2h", 
      "attrs": {"num_hidden": "160"}, 
      "inputs": [[273, 0, 0], [72, 0, 0], [73, 0, 0]]
    }, 
    {
      "op": "ones_like", 
      "name": "ones_like164", 
      "inputs": [[244, 0, 0]]
    }, 
    {
      "op": "Dropout", 
      "name": "dropout160", 
      "attrs": {"p": "0.1"}, 
      "inputs": [[275, 0, 0]]
    }, 
    {
      "op": "where", 
      "name": "where371", 
      "inputs": [[276, 0, 0], [244, 0, 0], [228, 0, 0]]
    }, 
    {
      "op": "where", 
      "name": "where377", 
      "inputs": [[36, 1097, 0], [75, 0, 0], [277, 0, 0]]
    }, 
    {
      "op": "FullyConnected", 
      "name": "lstm_l_0t4_h2h", 
      "attrs": {"num_hidden": "160"}, 
      "inputs": [[278, 0, 0], [77, 0, 0], [78, 0, 0]]
    }, 
    {
      "op": "elemwise_add", 
      "name": "_plus164", 
      "inputs": [[274, 0, 0], [279, 0, 0]]
    }, 
    {
      "op": "SliceChannel", 
      "name": "lstm_l_0t4_slice", 
      "attrs": {"num_outputs": "4"}, 
      "inputs": [[280, 0, 0]]
    }, 
    {
      "op": "Activation", 
      "name": "lstm_l_0t4_o", 
      "attrs": {"act_type": "sigmoid"}, 
      "inputs": [[281, 3, 0]]
    }, 
    {
      "op": "Activation", 
      "name": "lstm_l_0t4_f", 
      "attrs": {"act_type": "sigmoid"}, 
      "inputs": [[281, 1, 0]]
    }, 
    {
      "op": "ones_like", 
      "name": "ones_like165", 
      "inputs": [[242, 0, 0]]
    }, 
    {
      "op": "Dropout", 
      "name": "dropout161", 
      "attrs": {"p": "0.1"}, 
      "inputs": [[284, 0, 0]]
    }, 
    {
      "op": "where", 
      "name": "where372", 
      "inputs": [[285, 0, 0], [242, 0, 0], [237, 0, 0]]
    }, 
    {
      "op": "where", 
      "name": "where378", 
      "inputs": [[36, 1097, 0], [84, 0, 0], [286, 0, 0]]
    }, 
    {
      "op": "elemwise_mul", 
      "name": "_mul624", 
      "inputs": [[283, 0, 0], [287, 0, 0]]
    }, 
    {
      "op": "Activation", 
      "name": "lstm_l_0t4_i", 
      "attrs": {"act_type": "sigmoid"}, 
      "inputs": [[281, 0, 0]]
    }, 
    {
      "op": "Activation", 
      "name": "lstm_l_0t4_c", 
      "attrs": {"act_type": "tanh"}, 
      "inputs": [[281, 2, 0]]
    }, 
    {
      "op": "elemwise_mul", 
      "name": "_mul625", 
      "inputs": [[289, 0, 0], [290, 0, 0]]
    }, 
    {
      "op": "elemwise_add", 
      "name": "lstm_l_0t4_state", 
      "inputs": [[288, 0, 0], [291, 0, 0]]
    }, 
    {
      "op": "Activation", 
      "name": "activation164", 
      "attrs": {"act_type": "tanh"}, 
      "inputs": [[292, 0, 0]]
    }, 
    {
      "op": "elemwise_mul", 
      "name": "lstm_l_0t4_out", 
      "inputs": [[282, 0, 0], [293, 0, 0]]
    }, 
    {
      "op": "FullyConnected", 
      "name": "lstm_l_1t4_i2h", 
      "attrs": {"num_hidden": "160"}, 
      "inputs": [[294, 0, 0], [93, 0, 0], [94, 0, 0]]
    }, 
    {
      "op": "ones_like", 
      "name": "ones_like166", 
      "inputs": [[265, 0, 0]]
    }, 
    {
      "op": "Dropout", 
      "name": "dropout162", 
      "attrs": {"p": "0.1"}, 
      "inputs": [[296, 0, 0]]
    }, 
    {
      "op": "where", 
      "name": "where373", 
      "inputs": [[297, 0, 0], [265, 0, 0], [249, 0, 0]]
    }, 
    {
      "op": "where", 
      "name": "where379", 
      "inputs": [[36, 1097, 0], [96, 0, 0], [298, 0, 0]]
    }, 
    {
      "op": "FullyConnected", 
      "name": "lstm_l_1t4_h2h", 
      "attrs": {"num_hidden": "160"}, 
      "inputs": [[299, 0, 0], [98, 0, 0], [99, 0, 0]]
    }, 
    {
      "op": "elemwise_add", 
      "name": "_plus165", 
      "inputs": [[295, 0, 0], [300, 0, 0]]
    }, 
    {
      "op": "SliceChannel", 
      "name": "lstm_l_1t4_slice", 
      "attrs": {"num_outputs": "4"}, 
      "inputs": [[301, 0, 0]]
    }, 
    {
      "op": "Activation", 
      "name": "lstm_l_1t4_o", 
      "attrs": {"act_type": "sigmoid"}, 
      "inputs": [[302, 3, 0]]
    }, 
    {
      "op": "Activation", 
      "name": "lstm_l_1t4_f", 
      "attrs": {"act_type": "sigmoid"}, 
      "inputs": [[302, 1, 0]]
    }, 
    {
      "op": "ones_like", 
      "name": "ones_like167", 
      "inputs": [[263, 0, 0]]
    }, 
    {
      "op": "Dropout", 
      "name": "dropout163", 
      "attrs": {"p": "0.1"}, 
      "inputs": [[305, 0, 0]]
    }, 
    {
      "op": "where", 
      "name": "where374", 
      "inputs": [[306, 0, 0], [263, 0, 0], [258, 0, 0]]
    }, 
    {
      "op": "where", 
      "name": "where380", 
      "inputs": [[36, 1097, 0], [105, 0, 0], [307, 0, 0]]
    }, 
    {
      "op": "elemwise_mul", 
      "name": "_mul626", 
      "inputs": [[304, 0, 0], [308, 0, 0]]
    }, 
    {
      "op": "Activation", 
      "name": "lstm_l_1t4_i", 
      "attrs": {"act_type": "sigmoid"}, 
      "inputs": [[302, 0, 0]]
    }, 
    {
      "op": "Activation", 
      "name": "lstm_l_1t4_c", 
      "attrs": {"act_type": "tanh"}, 
      "inputs": [[302, 2, 0]]
    }, 
    {
      "op": "elemwise_mul", 
      "name": "_mul627", 
      "inputs": [[310, 0, 0], [311, 0, 0]]
    }, 
    {
      "op": "elemwise_add", 
      "name": "lstm_l_1t4_state", 
      "inputs": [[309, 0, 0], [312, 0, 0]]
    }, 
    {
      "op": "Activation", 
      "name": "activation165", 
      "attrs": {"act_type": "tanh"}, 
      "inputs": [[313, 0, 0]]
    }, 
    {
      "op": "elemwise_mul", 
      "name": "lstm_l_1t4_out", 
      "inputs": [[303, 0, 0], [314, 0, 0]]
    }, 
    {
      "op": "elemwise_add", 
      "name": "lstm_l_1t4_out_plus_residual", 
      "inputs": [[315, 0, 0], [294, 0, 0]]
    }, 
    {
      "op": "FullyConnected", 
      "name": "fullyconnected123", 
      "attrs": {"num_hidden": "1"}, 
      "inputs": [[316, 0, 0], [115, 0, 0], [116, 0, 0]]
    }, 
    {
      "op": "elemwise_mul", 
      "name": "_mul634", 
      "inputs": [[317, 0, 0], [30, 0, 0]]
    }, 
    {
      "op": "where", 
      "name": "where385", 
      "inputs": [[36, 1097, 0], [64, 0, 0], [318, 0, 0]]
    }, 
    {
      "op": "where", 
      "name": "where386", 
      "inputs": [[15, 1097, 0], [10, 1097, 0], [319, 0, 0]]
    }, 
    {
      "op": "Concat", 
      "name": "concat93", 
      "attrs": {
        "dim": "1", 
        "num_args": "30"
      }, 
      "inputs": [
        [320, 0, 0], 
        [270, 0, 0], 
        [220, 0, 0], 
        [170, 0, 0], 
        [120, 0, 0], 
        [10, 1092, 0], 
        [10, 1091, 0], 
        [10, 1090, 0], 
        [10, 1085, 0], 
        [10, 1084, 0], 
        [10, 1083, 0], 
        [10, 1078, 0], 
        [10, 1077, 0], 
        [10, 1076, 0], 
        [10, 1071, 0], 
        [10, 1070, 0], 
        [10, 1069, 0], 
        [10, 1068, 0], 
        [10, 1067, 0], 
        [10, 1042, 0], 
        [10, 1014, 0], 
        [10, 735, 0], 
        [10, 734, 0], 
        [10, 733, 0], 
        [10, 371, 0], 
        [10, 370, 0], 
        [10, 369, 0], 
        [10, 7, 0], 
        [10, 6, 0], 
        [10, 5, 0]
      ]
    }, 
    {
      "op": "broadcast_div", 
      "name": "broadcast_div44", 
      "inputs": [[321, 0, 0], [30, 0, 0]]
    }, 
    {
      "op": "Concat", 
      "name": "concat94", 
      "attrs": {
        "dim": "1", 
        "num_args": "3"
      }, 
      "inputs": [[39, 1098, 0], [32, 0, 0], [322, 0, 0]]
    }, 
    {
      "op": "FullyConnected", 
      "name": "lstm_l_0t5_i2h", 
      "attrs": {"num_hidden": "160"}, 
      "inputs": [[323, 0, 0], [72, 0, 0], [73, 0, 0]]
    }, 
    {
      "op": "ones_like", 
      "name": "ones_like168", 
      "inputs": [[294, 0, 0]]
    }, 
    {
      "op": "Dropout", 
      "name": "dropout164", 
      "attrs": {"p": "0.1"}, 
      "inputs": [[325, 0, 0]]
    }, 
    {
      "op": "where", 
      "name": "where381", 
      "inputs": [[326, 0, 0], [294, 0, 0], [278, 0, 0]]
    }, 
    {
      "op": "where", 
      "name": "where387", 
      "inputs": [[36, 1098, 0], [75, 0, 0], [327, 0, 0]]
    }, 
    {
      "op": "FullyConnected", 
      "name": "lstm_l_0t5_h2h", 
      "attrs": {"num_hidden": "160"}, 
      "inputs": [[328, 0, 0], [77, 0, 0], [78, 0, 0]]
    }, 
    {
      "op": "elemwise_add", 
      "name": "_plus168", 
      "inputs": [[324, 0, 0], [329, 0, 0]]
    }, 
    {
      "op": "SliceChannel", 
      "name": "lstm_l_0t5_slice", 
      "attrs": {"num_outputs": "4"}, 
      "inputs": [[330, 0, 0]]
    }, 
    {
      "op": "Activation", 
      "name": "lstm_l_0t5_o", 
      "attrs": {"act_type": "sigmoid"}, 
      "inputs": [[331, 3, 0]]
    }, 
    {
      "op": "Activation", 
      "name": "lstm_l_0t5_f", 
      "attrs": {"act_type": "sigmoid"}, 
      "inputs": [[331, 1, 0]]
    }, 
    {
      "op": "ones_like", 
      "name": "ones_like169", 
      "inputs": [[292, 0, 0]]
    }, 
    {
      "op": "Dropout", 
      "name": "dropout165", 
      "attrs": {"p": "0.1"}, 
      "inputs": [[334, 0, 0]]
    }, 
    {
      "op": "where", 
      "name": "where382", 
      "inputs": [[335, 0, 0], [292, 0, 0], [287, 0, 0]]
    }, 
    {
      "op": "where", 
      "name": "where388", 
      "inputs": [[36, 1098, 0], [84, 0, 0], [336, 0, 0]]
    }, 
    {
      "op": "elemwise_mul", 
      "name": "_mul639", 
      "inputs": [[333, 0, 0], [337, 0, 0]]
    }, 
    {
      "op": "Activation", 
      "name": "lstm_l_0t5_i", 
      "attrs": {"act_type": "sigmoid"}, 
      "inputs": [[331, 0, 0]]
    }, 
    {
      "op": "Activation", 
      "name": "lstm_l_0t5_c", 
      "attrs": {"act_type": "tanh"}, 
      "inputs": [[331, 2, 0]]
    }, 
    {
      "op": "elemwise_mul", 
      "name": "_mul640", 
      "inputs": [[339, 0, 0], [340, 0, 0]]
    }, 
    {
      "op": "elemwise_add", 
      "name": "lstm_l_0t5_state", 
      "inputs": [[338, 0, 0], [341, 0, 0]]
    }, 
    {
      "op": "Activation", 
      "name": "activation168", 
      "attrs": {"act_type": "tanh"}, 
      "inputs": [[342, 0, 0]]
    }, 
    {
      "op": "elemwise_mul", 
      "name": "lstm_l_0t5_out", 
      "inputs": [[332, 0, 0], [343, 0, 0]]
    }, 
    {
      "op": "FullyConnected", 
      "name": "lstm_l_1t5_i2h", 
      "attrs": {"num_hidden": "160"}, 
      "inputs": [[344, 0, 0], [93, 0, 0], [94, 0, 0]]
    }, 
    {
      "op": "ones_like", 
      "name": "ones_like170", 
      "inputs": [[315, 0, 0]]
    }, 
    {
      "op": "Dropout", 
      "name": "dropout166", 
      "attrs": {"p": "0.1"}, 
      "inputs": [[346, 0, 0]]
    }, 
    {
      "op": "where", 
      "name": "where383", 
      "inputs": [[347, 0, 0], [315, 0, 0], [299, 0, 0]]
    }, 
    {
      "op": "where", 
      "name": "where389", 
      "inputs": [[36, 1098, 0], [96, 0, 0], [348, 0, 0]]
    }, 
    {
      "op": "FullyConnected", 
      "name": "lstm_l_1t5_h2h", 
      "attrs": {"num_hidden": "160"}, 
      "inputs": [[349, 0, 0], [98, 0, 0], [99, 0, 0]]
    }, 
    {
      "op": "elemwise_add", 
      "name": "_plus169", 
      "inputs": [[345, 0, 0], [350, 0, 0]]
    }, 
    {
      "op": "SliceChannel", 
      "name": "lstm_l_1t5_slice", 
      "attrs": {"num_outputs": "4"}, 
      "inputs": [[351, 0, 0]]
    }, 
    {
      "op": "Activation", 
      "name": "lstm_l_1t5_o", 
      "attrs": {"act_type": "sigmoid"}, 
      "inputs": [[352, 3, 0]]
    }, 
    {
      "op": "Activation", 
      "name": "lstm_l_1t5_f", 
      "attrs": {"act_type": "sigmoid"}, 
      "inputs": [[352, 1, 0]]
    }, 
    {
      "op": "ones_like", 
      "name": "ones_like171", 
      "inputs": [[313, 0, 0]]
    }, 
    {
      "op": "Dropout", 
      "name": "dropout167", 
      "attrs": {"p": "0.1"}, 
      "inputs": [[355, 0, 0]]
    }, 
    {
      "op": "where", 
      "name": "where384", 
      "inputs": [[356, 0, 0], [313, 0, 0], [308, 0, 0]]
    }, 
    {
      "op": "where", 
      "name": "where390", 
      "inputs": [[36, 1098, 0], [105, 0, 0], [357, 0, 0]]
    }, 
    {
      "op": "elemwise_mul", 
      "name": "_mul641", 
      "inputs": [[354, 0, 0], [358, 0, 0]]
    }, 
    {
      "op": "Activation", 
      "name": "lstm_l_1t5_i", 
      "attrs": {"act_type": "sigmoid"}, 
      "inputs": [[352, 0, 0]]
    }, 
    {
      "op": "Activation", 
      "name": "lstm_l_1t5_c", 
      "attrs": {"act_type": "tanh"}, 
      "inputs": [[352, 2, 0]]
    }, 
    {
      "op": "elemwise_mul", 
      "name": "_mul642", 
      "inputs": [[360, 0, 0], [361, 0, 0]]
    }, 
    {
      "op": "elemwise_add", 
      "name": "lstm_l_1t5_state", 
      "inputs": [[359, 0, 0], [362, 0, 0]]
    }, 
    {
      "op": "Activation", 
      "name": "activation169", 
      "attrs": {"act_type": "tanh"}, 
      "inputs": [[363, 0, 0]]
    }, 
    {
      "op": "elemwise_mul", 
      "name": "lstm_l_1t5_out", 
      "inputs": [[353, 0, 0], [364, 0, 0]]
    }, 
    {
      "op": "elemwise_add", 
      "name": "lstm_l_1t5_out_plus_residual", 
      "inputs": [[365, 0, 0], [344, 0, 0]]
    }, 
    {
      "op": "FullyConnected", 
      "name": "fullyconnected126", 
      "attrs": {"num_hidden": "1"}, 
      "inputs": [[366, 0, 0], [115, 0, 0], [116, 0, 0]]
    }, 
    {
      "op": "elemwise_mul", 
      "name": "_mul649", 
      "inputs": [[367, 0, 0], [30, 0, 0]]
    }, 
    {
      "op": "where", 
      "name": "where395", 
      "inputs": [[36, 1098, 0], [63, 0, 0], [368, 0, 0]]
    }, 
    {
      "op": "where", 
      "name": "where396", 
      "inputs": [[15, 1098, 0], [10, 1098, 0], [369, 0, 0]]
    }, 
    {
      "op": "Concat", 
      "name": "concat95", 
      "attrs": {
        "dim": "1", 
        "num_args": "30"
      }, 
      "inputs": [
        [370, 0, 0], 
        [320, 0, 0], 
        [270, 0, 0], 
        [220, 0, 0], 
        [170, 0, 0], 
        [120, 0, 0], 
        [10, 1092, 0], 
        [10, 1091, 0], 
        [10, 1086, 0], 
        [10, 1085, 0], 
        [10, 1084, 0], 
        [10, 1079, 0], 
        [10, 1078, 0], 
        [10, 1077, 0], 
        [10, 1072, 0], 
        [10, 1071, 0], 
        [10, 1070, 0], 
        [10, 1069, 0], 
        [10, 1068, 0], 
        [10, 1043, 0], 
        [10, 1015, 0], 
        [10, 736, 0], 
        [10, 735, 0], 
        [10, 734, 0], 
        [10, 372, 0], 
        [10, 371, 0], 
        [10, 370, 0], 
        [10, 8, 0], 
        [10, 7, 0], 
        [10, 6, 0]
      ]
    }, 
    {
      "op": "broadcast_div", 
      "name": "broadcast_div45", 
      "inputs": [[371, 0, 0], [30, 0, 0]]
    }, 
    {
      "op": "Concat", 
      "name": "concat96", 
      "attrs": {
        "dim": "1", 
        "num_args": "3"
      }, 
      "inputs": [[39, 1099, 0], [32, 0, 0], [372, 0, 0]]
    }, 
    {
      "op": "FullyConnected", 
      "name": "lstm_l_0t6_i2h", 
      "attrs": {"num_hidden": "160"}, 
      "inputs": [[373, 0, 0], [72, 0, 0], [73, 0, 0]]
    }, 
    {
      "op": "ones_like", 
      "name": "ones_like172", 
      "inputs": [[344, 0, 0]]
    }, 
    {
      "op": "Dropout", 
      "name": "dropout168", 
      "attrs": {"p": "0.1"}, 
      "inputs": [[375, 0, 0]]
    }, 
    {
      "op": "where", 
      "name": "where391", 
      "inputs": [[376, 0, 0], [344, 0, 0], [328, 0, 0]]
    }, 
    {
      "op": "where", 
      "name": "where397", 
      "inputs": [[36, 1099, 0], [75, 0, 0], [377, 0, 0]]
    }, 
    {
      "op": "FullyConnected", 
      "name": "lstm_l_0t6_h2h", 
      "attrs": {"num_hidden": "160"}, 
      "inputs": [[378, 0, 0], [77, 0, 0], [78, 0, 0]]
    }, 
    {
      "op": "elemwise_add", 
      "name": "_plus172", 
      "inputs": [[374, 0, 0], [379, 0, 0]]
    }, 
    {
      "op": "SliceChannel", 
      "name": "lstm_l_0t6_slice", 
      "attrs": {"num_outputs": "4"}, 
      "inputs": [[380, 0, 0]]
    }, 
    {
      "op": "Activation", 
      "name": "lstm_l_0t6_o", 
      "attrs": {"act_type": "sigmoid"}, 
      "inputs": [[381, 3, 0]]
    }, 
    {
      "op": "Activation", 
      "name": "lstm_l_0t6_f", 
      "attrs": {"act_type": "sigmoid"}, 
      "inputs": [[381, 1, 0]]
    }, 
    {
      "op": "ones_like", 
      "name": "ones_like173", 
      "inputs": [[342, 0, 0]]
    }, 
    {
      "op": "Dropout", 
      "name": "dropout169", 
      "attrs": {"p": "0.1"}, 
      "inputs": [[384, 0, 0]]
    }, 
    {
      "op": "where", 
      "name": "where392", 
      "inputs": [[385, 0, 0], [342, 0, 0], [337, 0, 0]]
    }, 
    {
      "op": "where", 
      "name": "where398", 
      "inputs": [[36, 1099, 0], [84, 0, 0], [386, 0, 0]]
    }, 
    {
      "op": "elemwise_mul", 
      "name": "_mul654", 
      "inputs": [[383, 0, 0], [387, 0, 0]]
    }, 
    {
      "op": "Activation", 
      "name": "lstm_l_0t6_i", 
      "attrs": {"act_type": "sigmoid"}, 
      "inputs": [[381, 0, 0]]
    }, 
    {
      "op": "Activation", 
      "name": "lstm_l_0t6_c", 
      "attrs": {"act_type": "tanh"}, 
      "inputs": [[381, 2, 0]]
    }, 
    {
      "op": "elemwise_mul", 
      "name": "_mul655", 
      "inputs": [[389, 0, 0], [390, 0, 0]]
    }, 
    {
      "op": "elemwise_add", 
      "name": "lstm_l_0t6_state", 
      "inputs": [[388, 0, 0], [391, 0, 0]]
    }, 
    {
      "op": "Activation", 
      "name": "activation172", 
      "attrs": {"act_type": "tanh"}, 
      "inputs": [[392, 0, 0]]
    }, 
    {
      "op": "elemwise_mul", 
      "name": "lstm_l_0t6_out", 
      "inputs": [[382, 0, 0], [393, 0, 0]]
    }, 
    {
      "op": "FullyConnected", 
      "name": "lstm_l_1t6_i2h", 
      "attrs": {"num_hidden": "160"}, 
      "inputs": [[394, 0, 0], [93, 0, 0], [94, 0, 0]]
    }, 
    {
      "op": "ones_like", 
      "name": "ones_like174", 
      "inputs": [[365, 0, 0]]
    }, 
    {
      "op": "Dropout", 
      "name": "dropout170", 
      "attrs": {"p": "0.1"}, 
      "inputs": [[396, 0, 0]]
    }, 
    {
      "op": "where", 
      "name": "where393", 
      "inputs": [[397, 0, 0], [365, 0, 0], [349, 0, 0]]
    }, 
    {
      "op": "where", 
      "name": "where399", 
      "inputs": [[36, 1099, 0], [96, 0, 0], [398, 0, 0]]
    }, 
    {
      "op": "FullyConnected", 
      "name": "lstm_l_1t6_h2h", 
      "attrs": {"num_hidden": "160"}, 
      "inputs": [[399, 0, 0], [98, 0, 0], [99, 0, 0]]
    }, 
    {
      "op": "elemwise_add", 
      "name": "_plus173", 
      "inputs": [[395, 0, 0], [400, 0, 0]]
    }, 
    {
      "op": "SliceChannel", 
      "name": "lstm_l_1t6_slice", 
      "attrs": {"num_outputs": "4"}, 
      "inputs": [[401, 0, 0]]
    }, 
    {
      "op": "Activation", 
      "name": "lstm_l_1t6_o", 
      "attrs": {"act_type": "sigmoid"}, 
      "inputs": [[402, 3, 0]]
    }, 
    {
      "op": "Activation", 
      "name": "lstm_l_1t6_f", 
      "attrs": {"act_type": "sigmoid"}, 
      "inputs": [[402, 1, 0]]
    }, 
    {
      "op": "ones_like", 
      "name": "ones_like175", 
      "inputs": [[363, 0, 0]]
    }, 
    {
      "op": "Dropout", 
      "name": "dropout171", 
      "attrs": {"p": "0.1"}, 
      "inputs": [[405, 0, 0]]
    }, 
    {
      "op": "where", 
      "name": "where394", 
      "inputs": [[406, 0, 0], [363, 0, 0], [358, 0, 0]]
    }, 
    {
      "op": "where", 
      "name": "where400", 
      "inputs": [[36, 1099, 0], [105, 0, 0], [407, 0, 0]]
    }, 
    {
      "op": "elemwise_mul", 
      "name": "_mul656", 
      "inputs": [[404, 0, 0], [408, 0, 0]]
    }, 
    {
      "op": "Activation", 
      "name": "lstm_l_1t6_i", 
      "attrs": {"act_type": "sigmoid"}, 
      "inputs": [[402, 0, 0]]
    }, 
    {
      "op": "Activation", 
      "name": "lstm_l_1t6_c", 
      "attrs": {"act_type": "tanh"}, 
      "inputs": [[402, 2, 0]]
    }, 
    {
      "op": "elemwise_mul", 
      "name": "_mul657", 
      "inputs": [[410, 0, 0], [411, 0, 0]]
    }, 
    {
      "op": "elemwise_add", 
      "name": "lstm_l_1t6_state", 
      "inputs": [[409, 0, 0], [412, 0, 0]]
    }, 
    {
      "op": "Activation", 
      "name": "activation173", 
      "attrs": {"act_type": "tanh"}, 
      "inputs": [[413, 0, 0]]
    }, 
    {
      "op": "elemwise_mul", 
      "name": "lstm_l_1t6_out", 
      "inputs": [[403, 0, 0], [414, 0, 0]]
    }, 
    {
      "op": "elemwise_add", 
      "name": "lstm_l_1t6_out_plus_residual", 
      "inputs": [[415, 0, 0], [394, 0, 0]]
    }, 
    {
      "op": "FullyConnected", 
      "name": "fullyconnected129", 
      "attrs": {"num_hidden": "1"}, 
      "inputs": [[416, 0, 0], [115, 0, 0], [116, 0, 0]]
    }, 
    {
      "op": "elemwise_mul", 
      "name": "_mul664", 
      "inputs": [[417, 0, 0], [30, 0, 0]]
    }, 
    {
      "op": "where", 
      "name": "where405", 
      "inputs": [[36, 1099, 0], [62, 0, 0], [418, 0, 0]]
    }, 
    {
      "op": "where", 
      "name": "where406", 
      "inputs": [[15, 1099, 0], [10, 1099, 0], [419, 0, 0]]
    }, 
    {
      "op": "Concat", 
      "name": "concat97", 
      "attrs": {
        "dim": "1", 
        "num_args": "30"
      }, 
      "inputs": [
        [420, 0, 0], 
        [370, 0, 0], 
        [320, 0, 0], 
        [270, 0, 0], 
        [220, 0, 0], 
        [170, 0, 0], 
        [120, 0, 0], 
        [10, 1092, 0], 
        [10, 1087, 0], 
        [10, 1086, 0], 
        [10, 1085, 0], 
        [10, 1080, 0], 
        [10, 1079, 0], 
        [10, 1078, 0], 
        [10, 1073, 0], 
        [10, 1072, 0], 
        [10, 1071, 0], 
        [10, 1070, 0], 
        [10, 1069, 0], 
        [10, 1044, 0], 
        [10, 1016, 0], 
        [10, 737, 0], 
        [10, 736, 0], 
        [10, 735, 0], 
        [10, 373, 0], 
        [10, 372, 0], 
        [10, 371, 0], 
        [10, 9, 0], 
        [10, 8, 0], 
        [10, 7, 0]
      ]
    }, 
    {
      "op": "broadcast_div", 
      "name": "broadcast_div46", 
      "inputs": [[421, 0, 0], [30, 0, 0]]
    }, 
    {
      "op": "Concat", 
      "name": "concat98", 
      "attrs": {
        "dim": "1", 
        "num_args": "3"
      }, 
      "inputs": [[39, 1100, 0], [32, 0, 0], [422, 0, 0]]
    }, 
    {
      "op": "FullyConnected", 
      "name": "lstm_l_0t7_i2h", 
      "attrs": {"num_hidden": "160"}, 
      "inputs": [[423, 0, 0], [72, 0, 0], [73, 0, 0]]
    }, 
    {
      "op": "ones_like", 
      "name": "ones_like176", 
      "inputs": [[394, 0, 0]]
    }, 
    {
      "op": "Dropout", 
      "name": "dropout172", 
      "attrs": {"p": "0.1"}, 
      "inputs": [[425, 0, 0]]
    }, 
    {
      "op": "where", 
      "name": "where401", 
      "inputs": [[426, 0, 0], [394, 0, 0], [378, 0, 0]]
    }, 
    {
      "op": "where", 
      "name": "where407", 
      "inputs": [[36, 1100, 0], [75, 0, 0], [427, 0, 0]]
    }, 
    {
      "op": "FullyConnected", 
      "name": "lstm_l_0t7_h2h", 
      "attrs": {"num_hidden": "160"}, 
      "inputs": [[428, 0, 0], [77, 0, 0], [78, 0, 0]]
    }, 
    {
      "op": "elemwise_add", 
      "name": "_plus176", 
      "inputs": [[424, 0, 0], [429, 0, 0]]
    }, 
    {
      "op": "SliceChannel", 
      "name": "lstm_l_0t7_slice", 
      "attrs": {"num_outputs": "4"}, 
      "inputs": [[430, 0, 0]]
    }, 
    {
      "op": "Activation", 
      "name": "lstm_l_0t7_o", 
      "attrs": {"act_type": "sigmoid"}, 
      "inputs": [[431, 3, 0]]
    }, 
    {
      "op": "Activation", 
      "name": "lstm_l_0t7_f", 
      "attrs": {"act_type": "sigmoid"}, 
      "inputs": [[431, 1, 0]]
    }, 
    {
      "op": "ones_like", 
      "name": "ones_like177", 
      "inputs": [[392, 0, 0]]
    }, 
    {
      "op": "Dropout", 
      "name": "dropout173", 
      "attrs": {"p": "0.1"}, 
      "inputs": [[434, 0, 0]]
    }, 
    {
      "op": "where", 
      "name": "where402", 
      "inputs": [[435, 0, 0], [392, 0, 0], [387, 0, 0]]
    }, 
    {
      "op": "where", 
      "name": "where408", 
      "inputs": [[36, 1100, 0], [84, 0, 0], [436, 0, 0]]
    }, 
    {
      "op": "elemwise_mul", 
      "name": "_mul669", 
      "inputs": [[433, 0, 0], [437, 0, 0]]
    }, 
    {
      "op": "Activation", 
      "name": "lstm_l_0t7_i", 
      "attrs": {"act_type": "sigmoid"}, 
      "inputs": [[431, 0, 0]]
    }, 
    {
      "op": "Activation", 
      "name": "lstm_l_0t7_c", 
      "attrs": {"act_type": "tanh"}, 
      "inputs": [[431, 2, 0]]
    }, 
    {
      "op": "elemwise_mul", 
      "name": "_mul670", 
      "inputs": [[439, 0, 0], [440, 0, 0]]
    }, 
    {
      "op": "elemwise_add", 
      "name": "lstm_l_0t7_state", 
      "inputs": [[438, 0, 0], [441, 0, 0]]
    }, 
    {
      "op": "Activation", 
      "name": "activation176", 
      "attrs": {"act_type": "tanh"}, 
      "inputs": [[442, 0, 0]]
    }, 
    {
      "op": "elemwise_mul", 
      "name": "lstm_l_0t7_out", 
      "inputs": [[432, 0, 0], [443, 0, 0]]
    }, 
    {
      "op": "FullyConnected", 
      "name": "lstm_l_1t7_i2h", 
      "attrs": {"num_hidden": "160"}, 
      "inputs": [[444, 0, 0], [93, 0, 0], [94, 0, 0]]
    }, 
    {
      "op": "ones_like", 
      "name": "ones_like178", 
      "inputs": [[415, 0, 0]]
    }, 
    {
      "op": "Dropout", 
      "name": "dropout174", 
      "attrs": {"p": "0.1"}, 
      "inputs": [[446, 0, 0]]
    }, 
    {
      "op": "where", 
      "name": "where403", 
      "inputs": [[447, 0, 0], [415, 0, 0], [399, 0, 0]]
    }, 
    {
      "op": "where", 
      "name": "where409", 
      "inputs": [[36, 1100, 0], [96, 0, 0], [448, 0, 0]]
    }, 
    {
      "op": "FullyConnected", 
      "name": "lstm_l_1t7_h2h", 
      "attrs": {"num_hidden": "160"}, 
      "inputs": [[449, 0, 0], [98, 0, 0], [99, 0, 0]]
    }, 
    {
      "op": "elemwise_add", 
      "name": "_plus177", 
      "inputs": [[445, 0, 0], [450, 0, 0]]
    }, 
    {
      "op": "SliceChannel", 
      "name": "lstm_l_1t7_slice", 
      "attrs": {"num_outputs": "4"}, 
      "inputs": [[451, 0, 0]]
    }, 
    {
      "op": "Activation", 
      "name": "lstm_l_1t7_o", 
      "attrs": {"act_type": "sigmoid"}, 
      "inputs": [[452, 3, 0]]
    }, 
    {
      "op": "Activation", 
      "name": "lstm_l_1t7_f", 
      "attrs": {"act_type": "sigmoid"}, 
      "inputs": [[452, 1, 0]]
    }, 
    {
      "op": "ones_like", 
      "name": "ones_like179", 
      "inputs": [[413, 0, 0]]
    }, 
    {
      "op": "Dropout", 
      "name": "dropout175", 
      "attrs": {"p": "0.1"}, 
      "inputs": [[455, 0, 0]]
    }, 
    {
      "op": "where", 
      "name": "where404", 
      "inputs": [[456, 0, 0], [413, 0, 0], [408, 0, 0]]
    }, 
    {
      "op": "where", 
      "name": "where410", 
      "inputs": [[36, 1100, 0], [105, 0, 0], [457, 0, 0]]
    }, 
    {
      "op": "elemwise_mul", 
      "name": "_mul671", 
      "inputs": [[454, 0, 0], [458, 0, 0]]
    }, 
    {
      "op": "Activation", 
      "name": "lstm_l_1t7_i", 
      "attrs": {"act_type": "sigmoid"}, 
      "inputs": [[452, 0, 0]]
    }, 
    {
      "op": "Activation", 
      "name": "lstm_l_1t7_c", 
      "attrs": {"act_type": "tanh"}, 
      "inputs": [[452, 2, 0]]
    }, 
    {
      "op": "elemwise_mul", 
      "name": "_mul672", 
      "inputs": [[460, 0, 0], [461, 0, 0]]
    }, 
    {
      "op": "elemwise_add", 
      "name": "lstm_l_1t7_state", 
      "inputs": [[459, 0, 0], [462, 0, 0]]
    }, 
    {
      "op": "Activation", 
      "name": "activation177", 
      "attrs": {"act_type": "tanh"}, 
      "inputs": [[463, 0, 0]]
    }, 
    {
      "op": "elemwise_mul", 
      "name": "lstm_l_1t7_out", 
      "inputs": [[453, 0, 0], [464, 0, 0]]
    }, 
    {
      "op": "elemwise_add", 
      "name": "lstm_l_1t7_out_plus_residual", 
      "inputs": [[465, 0, 0], [444, 0, 0]]
    }, 
    {
      "op": "FullyConnected", 
      "name": "fullyconnected132", 
      "attrs": {"num_hidden": "1"}, 
      "inputs": [[466, 0, 0], [115, 0, 0], [116, 0, 0]]
    }, 
    {
      "op": "elemwise_mul", 
      "name": "_mul679", 
      "inputs": [[467, 0, 0], [30, 0, 0]]
    }, 
    {
      "op": "where", 
      "name": "where415", 
      "inputs": [[36, 1100, 0], [61, 0, 0], [468, 0, 0]]
    }, 
    {
      "op": "where", 
      "name": "where416", 
      "inputs": [[15, 1100, 0], [10, 1100, 0], [469, 0, 0]]
    }, 
    {
      "op": "Concat", 
      "name": "concat99", 
      "attrs": {
        "dim": "1", 
        "num_args": "30"
      }, 
      "inputs": [
        [470, 0, 0], 
        [420, 0, 0], 
        [370, 0, 0], 
        [320, 0, 0], 
        [270, 0, 0], 
        [220, 0, 0], 
        [170, 0, 0], 
        [120, 0, 0], 
        [10, 1088, 0], 
        [10, 1087, 0], 
        [10, 1086, 0], 
        [10, 1081, 0], 
        [10, 1080, 0], 
        [10, 1079, 0], 
        [10, 1074, 0], 
        [10, 1073, 0], 
        [10, 1072, 0], 
        [10, 1071, 0], 
        [10, 1070, 0], 
        [10, 1045, 0], 
        [10, 1017, 0], 
        [10, 738, 0], 
        [10, 737, 0], 
        [10, 736, 0], 
        [10, 374, 0], 
        [10, 373, 0], 
        [10, 372, 0], 
        [10, 10, 0], 
        [10, 9, 0], 
        [10, 8, 0]
      ]
    }, 
    {
      "op": "broadcast_div", 
      "name": "broadcast_div47", 
      "inputs": [[471, 0, 0], [30, 0, 0]]
    }, 
    {
      "op": "Concat", 
      "name": "concat100", 
      "attrs": {
        "dim": "1", 
        "num_args": "3"
      }, 
      "inputs": [[39, 1101, 0], [32, 0, 0], [472, 0, 0]]
    }, 
    {
      "op": "FullyConnected", 
      "name": "lstm_l_0t8_i2h", 
      "attrs": {"num_hidden": "160"}, 
      "inputs": [[473, 0, 0], [72, 0, 0], [73, 0, 0]]
    }, 
    {
      "op": "ones_like", 
      "name": "ones_like180", 
      "inputs": [[444, 0, 0]]
    }, 
    {
      "op": "Dropout", 
      "name": "dropout176", 
      "attrs": {"p": "0.1"}, 
      "inputs": [[475, 0, 0]]
    }, 
    {
      "op": "where", 
      "name": "where411", 
      "inputs": [[476, 0, 0], [444, 0, 0], [428, 0, 0]]
    }, 
    {
      "op": "where", 
      "name": "where417", 
      "inputs": [[36, 1101, 0], [75, 0, 0], [477, 0, 0]]
    }, 
    {
      "op": "FullyConnected", 
      "name": "lstm_l_0t8_h2h", 
      "attrs": {"num_hidden": "160"}, 
      "inputs": [[478, 0, 0], [77, 0, 0], [78, 0, 0]]
    }, 
    {
      "op": "elemwise_add", 
      "name": "_plus180", 
      "inputs": [[474, 0, 0], [479, 0, 0]]
    }, 
    {
      "op": "SliceChannel", 
      "name": "lstm_l_0t8_slice", 
      "attrs": {"num_outputs": "4"}, 
      "inputs": [[480, 0, 0]]
    }, 
    {
      "op": "Activation", 
      "name": "lstm_l_0t8_o", 
      "attrs": {"act_type": "sigmoid"}, 
      "inputs": [[481, 3, 0]]
    }, 
    {
      "op": "Activation", 
      "name": "lstm_l_0t8_f", 
      "attrs": {"act_type": "sigmoid"}, 
      "inputs": [[481, 1, 0]]
    }, 
    {
      "op": "ones_like", 
      "name": "ones_like181", 
      "inputs": [[442, 0, 0]]
    }, 
    {
      "op": "Dropout", 
      "name": "dropout177", 
      "attrs": {"p": "0.1"}, 
      "inputs": [[484, 0, 0]]
    }, 
    {
      "op": "where", 
      "name": "where412", 
      "inputs": [[485, 0, 0], [442, 0, 0], [437, 0, 0]]
    }, 
    {
      "op": "where", 
      "name": "where418", 
      "inputs": [[36, 1101, 0], [84, 0, 0], [486, 0, 0]]
    }, 
    {
      "op": "elemwise_mul", 
      "name": "_mul684", 
      "inputs": [[483, 0, 0], [487, 0, 0]]
    }, 
    {
      "op": "Activation", 
      "name": "lstm_l_0t8_i", 
      "attrs": {"act_type": "sigmoid"}, 
      "inputs": [[481, 0, 0]]
    }, 
    {
      "op": "Activation", 
      "name": "lstm_l_0t8_c", 
      "attrs": {"act_type": "tanh"}, 
      "inputs": [[481, 2, 0]]
    }, 
    {
      "op": "elemwise_mul", 
      "name": "_mul685", 
      "inputs": [[489, 0, 0], [490, 0, 0]]
    }, 
    {
      "op": "elemwise_add", 
      "name": "lstm_l_0t8_state", 
      "inputs": [[488, 0, 0], [491, 0, 0]]
    }, 
    {
      "op": "Activation", 
      "name": "activation180", 
      "attrs": {"act_type": "tanh"}, 
      "inputs": [[492, 0, 0]]
    }, 
    {
      "op": "elemwise_mul", 
      "name": "lstm_l_0t8_out", 
      "inputs": [[482, 0, 0], [493, 0, 0]]
    }, 
    {
      "op": "FullyConnected", 
      "name": "lstm_l_1t8_i2h", 
      "attrs": {"num_hidden": "160"}, 
      "inputs": [[494, 0, 0], [93, 0, 0], [94, 0, 0]]
    }, 
    {
      "op": "ones_like", 
      "name": "ones_like182", 
      "inputs": [[465, 0, 0]]
    }, 
    {
      "op": "Dropout", 
      "name": "dropout178", 
      "attrs": {"p": "0.1"}, 
      "inputs": [[496, 0, 0]]
    }, 
    {
      "op": "where", 
      "name": "where413", 
      "inputs": [[497, 0, 0], [465, 0, 0], [449, 0, 0]]
    }, 
    {
      "op": "where", 
      "name": "where419", 
      "inputs": [[36, 1101, 0], [96, 0, 0], [498, 0, 0]]
    }, 
    {
      "op": "FullyConnected", 
      "name": "lstm_l_1t8_h2h", 
      "attrs": {"num_hidden": "160"}, 
      "inputs": [[499, 0, 0], [98, 0, 0], [99, 0, 0]]
    }, 
    {
      "op": "elemwise_add", 
      "name": "_plus181", 
      "inputs": [[495, 0, 0], [500, 0, 0]]
    }, 
    {
      "op": "SliceChannel", 
      "name": "lstm_l_1t8_slice", 
      "attrs": {"num_outputs": "4"}, 
      "inputs": [[501, 0, 0]]
    }, 
    {
      "op": "Activation", 
      "name": "lstm_l_1t8_o", 
      "attrs": {"act_type": "sigmoid"}, 
      "inputs": [[502, 3, 0]]
    }, 
    {
      "op": "Activation", 
      "name": "lstm_l_1t8_f", 
      "attrs": {"act_type": "sigmoid"}, 
      "inputs": [[502, 1, 0]]
    }, 
    {
      "op": "ones_like", 
      "name": "ones_like183", 
      "inputs": [[463, 0, 0]]
    }, 
    {
      "op": "Dropout", 
      "name": "dropout179", 
      "attrs": {"p": "0.1"}, 
      "inputs": [[505, 0, 0]]
    }, 
    {
      "op": "where", 
      "name": "where414", 
      "inputs": [[506, 0, 0], [463, 0, 0], [458, 0, 0]]
    }, 
    {
      "op": "where", 
      "name": "where420", 
      "inputs": [[36, 1101, 0], [105, 0, 0], [507, 0, 0]]
    }, 
    {
      "op": "elemwise_mul", 
      "name": "_mul686", 
      "inputs": [[504, 0, 0], [508, 0, 0]]
    }, 
    {
      "op": "Activation", 
      "name": "lstm_l_1t8_i", 
      "attrs": {"act_type": "sigmoid"}, 
      "inputs": [[502, 0, 0]]
    }, 
    {
      "op": "Activation", 
      "name": "lstm_l_1t8_c", 
      "attrs": {"act_type": "tanh"}, 
      "inputs": [[502, 2, 0]]
    }, 
    {
      "op": "elemwise_mul", 
      "name": "_mul687", 
      "inputs": [[510, 0, 0], [511, 0, 0]]
    }, 
    {
      "op": "elemwise_add", 
      "name": "lstm_l_1t8_state", 
      "inputs": [[509, 0, 0], [512, 0, 0]]
    }, 
    {
      "op": "Activation", 
      "name": "activation181", 
      "attrs": {"act_type": "tanh"}, 
      "inputs": [[513, 0, 0]]
    }, 
    {
      "op": "elemwise_mul", 
      "name": "lstm_l_1t8_out", 
      "inputs": [[503, 0, 0], [514, 0, 0]]
    }, 
    {
      "op": "elemwise_add", 
      "name": "lstm_l_1t8_out_plus_residual", 
      "inputs": [[515, 0, 0], [494, 0, 0]]
    }, 
    {
      "op": "FullyConnected", 
      "name": "fullyconnected135", 
      "attrs": {"num_hidden": "1"}, 
      "inputs": [[516, 0, 0], [115, 0, 0], [116, 0, 0]]
    }, 
    {
      "op": "elemwise_mul", 
      "name": "_mul694", 
      "inputs": [[517, 0, 0], [30, 0, 0]]
    }, 
    {
      "op": "where", 
      "name": "where425", 
      "inputs": [[36, 1101, 0], [60, 0, 0], [518, 0, 0]]
    }, 
    {
      "op": "where", 
      "name": "where426", 
      "inputs": [[15, 1101, 0], [10, 1101, 0], [519, 0, 0]]
    }, 
    {
      "op": "Concat", 
      "name": "concat101", 
      "attrs": {
        "dim": "1", 
        "num_args": "30"
      }, 
      "inputs": [
        [520, 0, 0], 
        [470, 0, 0], 
        [420, 0, 0], 
        [370, 0, 0], 
        [320, 0, 0], 
        [270, 0, 0], 
        [220, 0, 0], 
        [170, 0, 0], 
        [10, 1089, 0], 
        [10, 1088, 0], 
        [10, 1087, 0], 
        [10, 1082, 0], 
        [10, 1081, 0], 
        [10, 1080, 0], 
        [10, 1075, 0], 
        [10, 1074, 0], 
        [10, 1073, 0], 
        [10, 1072, 0], 
        [10, 1071, 0], 
        [10, 1046, 0], 
        [10, 1018, 0], 
        [10, 739, 0], 
        [10, 738, 0], 
        [10, 737, 0], 
        [10, 375, 0], 
        [10, 374, 0], 
        [10, 373, 0], 
        [10, 11, 0], 
        [10, 10, 0], 
        [10, 9, 0]
      ]
    }, 
    {
      "op": "broadcast_div", 
      "name": "broadcast_div48", 
      "inputs": [[521, 0, 0], [30, 0, 0]]
    }, 
    {
      "op": "Concat", 
      "name": "concat102", 
      "attrs": {
        "dim": "1", 
        "num_args": "3"
      }, 
      "inputs": [[39, 1102, 0], [32, 0, 0], [522, 0, 0]]
    }, 
    {
      "op": "FullyConnected", 
      "name": "lstm_l_0t9_i2h", 
      "attrs": {"num_hidden": "160"}, 
      "inputs": [[523, 0, 0], [72, 0, 0], [73, 0, 0]]
    }, 
    {
      "op": "ones_like", 
      "name": "ones_like184", 
      "inputs": [[494, 0, 0]]
    }, 
    {
      "op": "Dropout", 
      "name": "dropout180", 
      "attrs": {"p": "0.1"}, 
      "inputs": [[525, 0, 0]]
    }, 
    {
      "op": "where", 
      "name": "where421", 
      "inputs": [[526, 0, 0], [494, 0, 0], [478, 0, 0]]
    }, 
    {
      "op": "where", 
      "name": "where427", 
      "inputs": [[36, 1102, 0], [75, 0, 0], [527, 0, 0]]
    }, 
    {
      "op": "FullyConnected", 
      "name": "lstm_l_0t9_h2h", 
      "attrs": {"num_hidden": "160"}, 
      "inputs": [[528, 0, 0], [77, 0, 0], [78, 0, 0]]
    }, 
    {
      "op": "elemwise_add", 
      "name": "_plus184", 
      "inputs": [[524, 0, 0], [529, 0, 0]]
    }, 
    {
      "op": "SliceChannel", 
      "name": "lstm_l_0t9_slice", 
      "attrs": {"num_outputs": "4"}, 
      "inputs": [[530, 0, 0]]
    }, 
    {
      "op": "Activation", 
      "name": "lstm_l_0t9_o", 
      "attrs": {"act_type": "sigmoid"}, 
      "inputs": [[531, 3, 0]]
    }, 
    {
      "op": "Activation", 
      "name": "lstm_l_0t9_f", 
      "attrs": {"act_type": "sigmoid"}, 
      "inputs": [[531, 1, 0]]
    }, 
    {
      "op": "ones_like", 
      "name": "ones_like185", 
      "inputs": [[492, 0, 0]]
    }, 
    {
      "op": "Dropout", 
      "name": "dropout181", 
      "attrs": {"p": "0.1"}, 
      "inputs": [[534, 0, 0]]
    }, 
    {
      "op": "where", 
      "name": "where422", 
      "inputs": [[535, 0, 0], [492, 0, 0], [487, 0, 0]]
    }, 
    {
      "op": "where", 
      "name": "where428", 
      "inputs": [[36, 1102, 0], [84, 0, 0], [536, 0, 0]]
    }, 
    {
      "op": "elemwise_mul", 
      "name": "_mul699", 
      "inputs": [[533, 0, 0], [537, 0, 0]]
    }, 
    {
      "op": "Activation", 
      "name": "lstm_l_0t9_i", 
      "attrs": {"act_type": "sigmoid"}, 
      "inputs": [[531, 0, 0]]
    }, 
    {
      "op": "Activation", 
      "name": "lstm_l_0t9_c", 
      "attrs": {"act_type": "tanh"}, 
      "inputs": [[531, 2, 0]]
    }, 
    {
      "op": "elemwise_mul", 
      "name": "_mul700", 
      "inputs": [[539, 0, 0], [540, 0, 0]]
    }, 
    {
      "op": "elemwise_add", 
      "name": "lstm_l_0t9_state", 
      "inputs": [[538, 0, 0], [541, 0, 0]]
    }, 
    {
      "op": "Activation", 
      "name": "activation184", 
      "attrs": {"act_type": "tanh"}, 
      "inputs": [[542, 0, 0]]
    }, 
    {
      "op": "elemwise_mul", 
      "name": "lstm_l_0t9_out", 
      "inputs": [[532, 0, 0], [543, 0, 0]]
    }, 
    {
      "op": "FullyConnected", 
      "name": "lstm_l_1t9_i2h", 
      "attrs": {"num_hidden": "160"}, 
      "inputs": [[544, 0, 0], [93, 0, 0], [94, 0, 0]]
    }, 
    {
      "op": "ones_like", 
      "name": "ones_like186", 
      "inputs": [[515, 0, 0]]
    }, 
    {
      "op": "Dropout", 
      "name": "dropout182", 
      "attrs": {"p": "0.1"}, 
      "inputs": [[546, 0, 0]]
    }, 
    {
      "op": "where", 
      "name": "where423", 
      "inputs": [[547, 0, 0], [515, 0, 0], [499, 0, 0]]
    }, 
    {
      "op": "where", 
      "name": "where429", 
      "inputs": [[36, 1102, 0], [96, 0, 0], [548, 0, 0]]
    }, 
    {
      "op": "FullyConnected", 
      "name": "lstm_l_1t9_h2h", 
      "attrs": {"num_hidden": "160"}, 
      "inputs": [[549, 0, 0], [98, 0, 0], [99, 0, 0]]
    }, 
    {
      "op": "elemwise_add", 
      "name": "_plus185", 
      "inputs": [[545, 0, 0], [550, 0, 0]]
    }, 
    {
      "op": "SliceChannel", 
      "name": "lstm_l_1t9_slice", 
      "attrs": {"num_outputs": "4"}, 
      "inputs": [[551, 0, 0]]
    }, 
    {
      "op": "Activation", 
      "name": "lstm_l_1t9_o", 
      "attrs": {"act_type": "sigmoid"}, 
      "inputs": [[552, 3, 0]]
    }, 
    {
      "op": "Activation", 
      "name": "lstm_l_1t9_f", 
      "attrs": {"act_type": "sigmoid"}, 
      "inputs": [[552, 1, 0]]
    }, 
    {
      "op": "ones_like", 
      "name": "ones_like187", 
      "inputs": [[513, 0, 0]]
    }, 
    {
      "op": "Dropout", 
      "name": "dropout183", 
      "attrs": {"p": "0.1"}, 
      "inputs": [[555, 0, 0]]
    }, 
    {
      "op": "where", 
      "name": "where424", 
      "inputs": [[556, 0, 0], [513, 0, 0], [508, 0, 0]]
    }, 
    {
      "op": "where", 
      "name": "where430", 
      "inputs": [[36, 1102, 0], [105, 0, 0], [557, 0, 0]]
    }, 
    {
      "op": "elemwise_mul", 
      "name": "_mul701", 
      "inputs": [[554, 0, 0], [558, 0, 0]]
    }, 
    {
      "op": "Activation", 
      "name": "lstm_l_1t9_i", 
      "attrs": {"act_type": "sigmoid"}, 
      "inputs": [[552, 0, 0]]
    }, 
    {
      "op": "Activation", 
      "name": "lstm_l_1t9_c", 
      "attrs": {"act_type": "tanh"}, 
      "inputs": [[552, 2, 0]]
    }, 
    {
      "op": "elemwise_mul", 
      "name": "_mul702", 
      "inputs": [[560, 0, 0], [561, 0, 0]]
    }, 
    {
      "op": "elemwise_add", 
      "name": "lstm_l_1t9_state", 
      "inputs": [[559, 0, 0], [562, 0, 0]]
    }, 
    {
      "op": "Activation", 
      "name": "activation185", 
      "attrs": {"act_type": "tanh"}, 
      "inputs": [[563, 0, 0]]
    }, 
    {
      "op": "elemwise_mul", 
      "name": "lstm_l_1t9_out", 
      "inputs": [[553, 0, 0], [564, 0, 0]]
    }, 
    {
      "op": "elemwise_add", 
      "name": "lstm_l_1t9_out_plus_residual", 
      "inputs": [[565, 0, 0], [544, 0, 0]]
    }, 
    {
      "op": "FullyConnected", 
      "name": "fullyconnected138", 
      "attrs": {"num_hidden": "1"}, 
      "inputs": [[566, 0, 0], [115, 0, 0], [116, 0, 0]]
    }, 
    {
      "op": "elemwise_mul", 
      "name": "_mul709", 
      "inputs": [[567, 0, 0], [30, 0, 0]]
    }, 
    {
      "op": "where", 
      "name": "where435", 
      "inputs": [[36, 1102, 0], [59, 0, 0], [568, 0, 0]]
    }, 
    {
      "op": "where", 
      "name": "where436", 
      "inputs": [[15, 1102, 0], [10, 1102, 0], [569, 0, 0]]
    }, 
    {
      "op": "Concat", 
      "name": "concat103", 
      "attrs": {
        "dim": "1", 
        "num_args": "30"
      }, 
      "inputs": [
        [570, 0, 0], 
        [520, 0, 0], 
        [470, 0, 0], 
        [420, 0, 0], 
        [370, 0, 0], 
        [320, 0, 0], 
        [270, 0, 0], 
        [220, 0, 0], 
        [10, 1090, 0], 
        [10, 1089, 0], 
        [10, 1088, 0], 
        [10, 1083, 0], 
        [10, 1082, 0], 
        [10, 1081, 0], 
        [10, 1076, 0], 
        [10, 1075, 0], 
        [10, 1074, 0], 
        [10, 1073, 0], 
        [10, 1072, 0], 
        [10, 1047, 0], 
        [10, 1019, 0], 
        [10, 740, 0], 
        [10, 739, 0], 
        [10, 738, 0], 
        [10, 376, 0], 
        [10, 375, 0], 
        [10, 374, 0], 
        [10, 12, 0], 
        [10, 11, 0], 
        [10, 10, 0]
      ]
    }, 
    {
      "op": "broadcast_div", 
      "name": "broadcast_div49", 
      "inputs": [[571, 0, 0], [30, 0, 0]]
    }, 
    {
      "op": "Concat", 
      "name": "concat104", 
      "attrs": {
        "dim": "1", 
        "num_args": "3"
      }, 
      "inputs": [[39, 1103, 0], [32, 0, 0], [572, 0, 0]]
    }, 
    {
      "op": "FullyConnected", 
      "name": "lstm_l_0t10_i2h", 
      "attrs": {"num_hidden": "160"}, 
      "inputs": [[573, 0, 0], [72, 0, 0], [73, 0, 0]]
    }, 
    {
      "op": "ones_like", 
      "name": "ones_like188", 
      "inputs": [[544, 0, 0]]
    }, 
    {
      "op": "Dropout", 
      "name": "dropout184", 
      "attrs": {"p": "0.1"}, 
      "inputs": [[575, 0, 0]]
    }, 
    {
      "op": "where", 
      "name": "where431", 
      "inputs": [[576, 0, 0], [544, 0, 0], [528, 0, 0]]
    }, 
    {
      "op": "where", 
      "name": "where437", 
      "inputs": [[36, 1103, 0], [75, 0, 0], [577, 0, 0]]
    }, 
    {
      "op": "FullyConnected", 
      "name": "lstm_l_0t10_h2h", 
      "attrs": {"num_hidden": "160"}, 
      "inputs": [[578, 0, 0], [77, 0, 0], [78, 0, 0]]
    }, 
    {
      "op": "elemwise_add", 
      "name": "_plus188", 
      "inputs": [[574, 0, 0], [579, 0, 0]]
    }, 
    {
      "op": "SliceChannel", 
      "name": "lstm_l_0t10_slice", 
      "attrs": {"num_outputs": "4"}, 
      "inputs": [[580, 0, 0]]
    }, 
    {
      "op": "Activation", 
      "name": "lstm_l_0t10_o", 
      "attrs": {"act_type": "sigmoid"}, 
      "inputs": [[581, 3, 0]]
    }, 
    {
      "op": "Activation", 
      "name": "lstm_l_0t10_f", 
      "attrs": {"act_type": "sigmoid"}, 
      "inputs": [[581, 1, 0]]
    }, 
    {
      "op": "ones_like", 
      "name": "ones_like189", 
      "inputs": [[542, 0, 0]]
    }, 
    {
      "op": "Dropout", 
      "name": "dropout185", 
      "attrs": {"p": "0.1"}, 
      "inputs": [[584, 0, 0]]
    }, 
    {
      "op": "where", 
      "name": "where432", 
      "inputs": [[585, 0, 0], [542, 0, 0], [537, 0, 0]]
    }, 
    {
      "op": "where", 
      "name": "where438", 
      "inputs": [[36, 1103, 0], [84, 0, 0], [586, 0, 0]]
    }, 
    {
      "op": "elemwise_mul", 
      "name": "_mul714", 
      "inputs": [[583, 0, 0], [587, 0, 0]]
    }, 
    {
      "op": "Activation", 
      "name": "lstm_l_0t10_i", 
      "attrs": {"act_type": "sigmoid"}, 
      "inputs": [[581, 0, 0]]
    }, 
    {
      "op": "Activation", 
      "name": "lstm_l_0t10_c", 
      "attrs": {"act_type": "tanh"}, 
      "inputs": [[581, 2, 0]]
    }, 
    {
      "op": "elemwise_mul", 
      "name": "_mul715", 
      "inputs": [[589, 0, 0], [590, 0, 0]]
    }, 
    {
      "op": "elemwise_add", 
      "name": "lstm_l_0t10_state", 
      "inputs": [[588, 0, 0], [591, 0, 0]]
    }, 
    {
      "op": "Activation", 
      "name": "activation188", 
      "attrs": {"act_type": "tanh"}, 
      "inputs": [[592, 0, 0]]
    }, 
    {
      "op": "elemwise_mul", 
      "name": "lstm_l_0t10_out", 
      "inputs": [[582, 0, 0], [593, 0, 0]]
    }, 
    {
      "op": "FullyConnected", 
      "name": "lstm_l_1t10_i2h", 
      "attrs": {"num_hidden": "160"}, 
      "inputs": [[594, 0, 0], [93, 0, 0], [94, 0, 0]]
    }, 
    {
      "op": "ones_like", 
      "name": "ones_like190", 
      "inputs": [[565, 0, 0]]
    }, 
    {
      "op": "Dropout", 
      "name": "dropout186", 
      "attrs": {"p": "0.1"}, 
      "inputs": [[596, 0, 0]]
    }, 
    {
      "op": "where", 
      "name": "where433", 
      "inputs": [[597, 0, 0], [565, 0, 0], [549, 0, 0]]
    }, 
    {
      "op": "where", 
      "name": "where439", 
      "inputs": [[36, 1103, 0], [96, 0, 0], [598, 0, 0]]
    }, 
    {
      "op": "FullyConnected", 
      "name": "lstm_l_1t10_h2h", 
      "attrs": {"num_hidden": "160"}, 
      "inputs": [[599, 0, 0], [98, 0, 0], [99, 0, 0]]
    }, 
    {
      "op": "elemwise_add", 
      "name": "_plus189", 
      "inputs": [[595, 0, 0], [600, 0, 0]]
    }, 
    {
      "op": "SliceChannel", 
      "name": "lstm_l_1t10_slice", 
      "attrs": {"num_outputs": "4"}, 
      "inputs": [[601, 0, 0]]
    }, 
    {
      "op": "Activation", 
      "name": "lstm_l_1t10_o", 
      "attrs": {"act_type": "sigmoid"}, 
      "inputs": [[602, 3, 0]]
    }, 
    {
      "op": "Activation", 
      "name": "lstm_l_1t10_f", 
      "attrs": {"act_type": "sigmoid"}, 
      "inputs": [[602, 1, 0]]
    }, 
    {
      "op": "ones_like", 
      "name": "ones_like191", 
      "inputs": [[563, 0, 0]]
    }, 
    {
      "op": "Dropout", 
      "name": "dropout187", 
      "attrs": {"p": "0.1"}, 
      "inputs": [[605, 0, 0]]
    }, 
    {
      "op": "where", 
      "name": "where434", 
      "inputs": [[606, 0, 0], [563, 0, 0], [558, 0, 0]]
    }, 
    {
      "op": "where", 
      "name": "where440", 
      "inputs": [[36, 1103, 0], [105, 0, 0], [607, 0, 0]]
    }, 
    {
      "op": "elemwise_mul", 
      "name": "_mul716", 
      "inputs": [[604, 0, 0], [608, 0, 0]]
    }, 
    {
      "op": "Activation", 
      "name": "lstm_l_1t10_i", 
      "attrs": {"act_type": "sigmoid"}, 
      "inputs": [[602, 0, 0]]
    }, 
    {
      "op": "Activation", 
      "name": "lstm_l_1t10_c", 
      "attrs": {"act_type": "tanh"}, 
      "inputs": [[602, 2, 0]]
    }, 
    {
      "op": "elemwise_mul", 
      "name": "_mul717", 
      "inputs": [[610, 0, 0], [611, 0, 0]]
    }, 
    {
      "op": "elemwise_add", 
      "name": "lstm_l_1t10_state", 
      "inputs": [[609, 0, 0], [612, 0, 0]]
    }, 
    {
      "op": "Activation", 
      "name": "activation189", 
      "attrs": {"act_type": "tanh"}, 
      "inputs": [[613, 0, 0]]
    }, 
    {
      "op": "elemwise_mul", 
      "name": "lstm_l_1t10_out", 
      "inputs": [[603, 0, 0], [614, 0, 0]]
    }, 
    {
      "op": "elemwise_add", 
      "name": "lstm_l_1t10_out_plus_residual", 
      "inputs": [[615, 0, 0], [594, 0, 0]]
    }, 
    {
      "op": "FullyConnected", 
      "name": "fullyconnected141", 
      "attrs": {"num_hidden": "1"}, 
      "inputs": [[616, 0, 0], [115, 0, 0], [116, 0, 0]]
    }, 
    {
      "op": "elemwise_mul", 
      "name": "_mul724", 
      "inputs": [[617, 0, 0], [30, 0, 0]]
    }, 
    {
      "op": "where", 
      "name": "where445", 
      "inputs": [[36, 1103, 0], [58, 0, 0], [618, 0, 0]]
    }, 
    {
      "op": "where", 
      "name": "where446", 
      "inputs": [[15, 1103, 0], [10, 1103, 0], [619, 0, 0]]
    }, 
    {
      "op": "Concat", 
      "name": "concat105", 
      "attrs": {
        "dim": "1", 
        "num_args": "30"
      }, 
      "inputs": [
        [620, 0, 0], 
        [570, 0, 0], 
        [520, 0, 0], 
        [470, 0, 0], 
        [420, 0, 0], 
        [370, 0, 0], 
        [320, 0, 0], 
        [270, 0, 0], 
        [10, 1091, 0], 
        [10, 1090, 0], 
        [10, 1089, 0], 
        [10, 1084, 0], 
        [10, 1083, 0], 
        [10, 1082, 0], 
        [10, 1077, 0], 
        [10, 1076, 0], 
        [10, 1075, 0], 
        [10, 1074, 0], 
        [10, 1073, 0], 
        [10, 1048, 0], 
        [10, 1020, 0], 
        [10, 741, 0], 
        [10, 740, 0], 
        [10, 739, 0], 
        [10, 377, 0], 
        [10, 376, 0], 
        [10, 375, 0], 
        [10, 13, 0], 
        [10, 12, 0], 
        [10, 11, 0]
      ]
    }, 
    {
      "op": "broadcast_div", 
      "name": "broadcast_div50", 
      "inputs": [[621, 0, 0], [30, 0, 0]]
    }, 
    {
      "op": "Concat", 
      "name": "concat106", 
      "attrs": {
        "dim": "1", 
        "num_args": "3"
      }, 
      "inputs": [[39, 1104, 0], [32, 0, 0], [622, 0, 0]]
    }, 
    {
      "op": "FullyConnected", 
      "name": "lstm_l_0t11_i2h", 
      "attrs": {"num_hidden": "160"}, 
      "inputs": [[623, 0, 0], [72, 0, 0], [73, 0, 0]]
    }, 
    {
      "op": "ones_like", 
      "name": "ones_like192", 
      "inputs": [[594, 0, 0]]
    }, 
    {
      "op": "Dropout", 
      "name": "dropout188", 
      "attrs": {"p": "0.1"}, 
      "inputs": [[625, 0, 0]]
    }, 
    {
      "op": "where", 
      "name": "where441", 
      "inputs": [[626, 0, 0], [594, 0, 0], [578, 0, 0]]
    }, 
    {
      "op": "where", 
      "name": "where447", 
      "inputs": [[36, 1104, 0], [75, 0, 0], [627, 0, 0]]
    }, 
    {
      "op": "FullyConnected", 
      "name": "lstm_l_0t11_h2h", 
      "attrs": {"num_hidden": "160"}, 
      "inputs": [[628, 0, 0], [77, 0, 0], [78, 0, 0]]
    }, 
    {
      "op": "elemwise_add", 
      "name": "_plus192", 
      "inputs": [[624, 0, 0], [629, 0, 0]]
    }, 
    {
      "op": "SliceChannel", 
      "name": "lstm_l_0t11_slice", 
      "attrs": {"num_outputs": "4"}, 
      "inputs": [[630, 0, 0]]
    }, 
    {
      "op": "Activation", 
      "name": "lstm_l_0t11_o", 
      "attrs": {"act_type": "sigmoid"}, 
      "inputs": [[631, 3, 0]]
    }, 
    {
      "op": "Activation", 
      "name": "lstm_l_0t11_f", 
      "attrs": {"act_type": "sigmoid"}, 
      "inputs": [[631, 1, 0]]
    }, 
    {
      "op": "ones_like", 
      "name": "ones_like193", 
      "inputs": [[592, 0, 0]]
    }, 
    {
      "op": "Dropout", 
      "name": "dropout189", 
      "attrs": {"p": "0.1"}, 
      "inputs": [[634, 0, 0]]
    }, 
    {
      "op": "where", 
      "name": "where442", 
      "inputs": [[635, 0, 0], [592, 0, 0], [587, 0, 0]]
    }, 
    {
      "op": "where", 
      "name": "where448", 
      "inputs": [[36, 1104, 0], [84, 0, 0], [636, 0, 0]]
    }, 
    {
      "op": "elemwise_mul", 
      "name": "_mul729", 
      "inputs": [[633, 0, 0], [637, 0, 0]]
    }, 
    {
      "op": "Activation", 
      "name": "lstm_l_0t11_i", 
      "attrs": {"act_type": "sigmoid"}, 
      "inputs": [[631, 0, 0]]
    }, 
    {
      "op": "Activation", 
      "name": "lstm_l_0t11_c", 
      "attrs": {"act_type": "tanh"}, 
      "inputs": [[631, 2, 0]]
    }, 
    {
      "op": "elemwise_mul", 
      "name": "_mul730", 
      "inputs": [[639, 0, 0], [640, 0, 0]]
    }, 
    {
      "op": "elemwise_add", 
      "name": "lstm_l_0t11_state", 
      "inputs": [[638, 0, 0], [641, 0, 0]]
    }, 
    {
      "op": "Activation", 
      "name": "activation192", 
      "attrs": {"act_type": "tanh"}, 
      "inputs": [[642, 0, 0]]
    }, 
    {
      "op": "elemwise_mul", 
      "name": "lstm_l_0t11_out", 
      "inputs": [[632, 0, 0], [643, 0, 0]]
    }, 
    {
      "op": "FullyConnected", 
      "name": "lstm_l_1t11_i2h", 
      "attrs": {"num_hidden": "160"}, 
      "inputs": [[644, 0, 0], [93, 0, 0], [94, 0, 0]]
    }, 
    {
      "op": "ones_like", 
      "name": "ones_like194", 
      "inputs": [[615, 0, 0]]
    }, 
    {
      "op": "Dropout", 
      "name": "dropout190", 
      "attrs": {"p": "0.1"}, 
      "inputs": [[646, 0, 0]]
    }, 
    {
      "op": "where", 
      "name": "where443", 
      "inputs": [[647, 0, 0], [615, 0, 0], [599, 0, 0]]
    }, 
    {
      "op": "where", 
      "name": "where449", 
      "inputs": [[36, 1104, 0], [96, 0, 0], [648, 0, 0]]
    }, 
    {
      "op": "FullyConnected", 
      "name": "lstm_l_1t11_h2h", 
      "attrs": {"num_hidden": "160"}, 
      "inputs": [[649, 0, 0], [98, 0, 0], [99, 0, 0]]
    }, 
    {
      "op": "elemwise_add", 
      "name": "_plus193", 
      "inputs": [[645, 0, 0], [650, 0, 0]]
    }, 
    {
      "op": "SliceChannel", 
      "name": "lstm_l_1t11_slice", 
      "attrs": {"num_outputs": "4"}, 
      "inputs": [[651, 0, 0]]
    }, 
    {
      "op": "Activation", 
      "name": "lstm_l_1t11_o", 
      "attrs": {"act_type": "sigmoid"}, 
      "inputs": [[652, 3, 0]]
    }, 
    {
      "op": "Activation", 
      "name": "lstm_l_1t11_f", 
      "attrs": {"act_type": "sigmoid"}, 
      "inputs": [[652, 1, 0]]
    }, 
    {
      "op": "ones_like", 
      "name": "ones_like195", 
      "inputs": [[613, 0, 0]]
    }, 
    {
      "op": "Dropout", 
      "name": "dropout191", 
      "attrs": {"p": "0.1"}, 
      "inputs": [[655, 0, 0]]
    }, 
    {
      "op": "where", 
      "name": "where444", 
      "inputs": [[656, 0, 0], [613, 0, 0], [608, 0, 0]]
    }, 
    {
      "op": "where", 
      "name": "where450", 
      "inputs": [[36, 1104, 0], [105, 0, 0], [657, 0, 0]]
    }, 
    {
      "op": "elemwise_mul", 
      "name": "_mul731", 
      "inputs": [[654, 0, 0], [658, 0, 0]]
    }, 
    {
      "op": "Activation", 
      "name": "lstm_l_1t11_i", 
      "attrs": {"act_type": "sigmoid"}, 
      "inputs": [[652, 0, 0]]
    }, 
    {
      "op": "Activation", 
      "name": "lstm_l_1t11_c", 
      "attrs": {"act_type": "tanh"}, 
      "inputs": [[652, 2, 0]]
    }, 
    {
      "op": "elemwise_mul", 
      "name": "_mul732", 
      "inputs": [[660, 0, 0], [661, 0, 0]]
    }, 
    {
      "op": "elemwise_add", 
      "name": "lstm_l_1t11_state", 
      "inputs": [[659, 0, 0], [662, 0, 0]]
    }, 
    {
      "op": "Activation", 
      "name": "activation193", 
      "attrs": {"act_type": "tanh"}, 
      "inputs": [[663, 0, 0]]
    }, 
    {
      "op": "elemwise_mul", 
      "name": "lstm_l_1t11_out", 
      "inputs": [[653, 0, 0], [664, 0, 0]]
    }, 
    {
      "op": "elemwise_add", 
      "name": "lstm_l_1t11_out_plus_residual", 
      "inputs": [[665, 0, 0], [644, 0, 0]]
    }, 
    {
      "op": "FullyConnected", 
      "name": "fullyconnected144", 
      "attrs": {"num_hidden": "1"}, 
      "inputs": [[666, 0, 0], [115, 0, 0], [116, 0, 0]]
    }, 
    {
      "op": "elemwise_mul", 
      "name": "_mul739", 
      "inputs": [[667, 0, 0], [30, 0, 0]]
    }, 
    {
      "op": "where", 
      "name": "where455", 
      "inputs": [[36, 1104, 0], [57, 0, 0], [668, 0, 0]]
    }, 
    {
      "op": "where", 
      "name": "where456", 
      "inputs": [[15, 1104, 0], [10, 1104, 0], [669, 0, 0]]
    }, 
    {
      "op": "Concat", 
      "name": "concat107", 
      "attrs": {
        "dim": "1", 
        "num_args": "30"
      }, 
      "inputs": [
        [670, 0, 0], 
        [620, 0, 0], 
        [570, 0, 0], 
        [520, 0, 0], 
        [470, 0, 0], 
        [420, 0, 0], 
        [370, 0, 0], 
        [320, 0, 0], 
        [10, 1092, 0], 
        [10, 1091, 0], 
        [10, 1090, 0], 
        [10, 1085, 0], 
        [10, 1084, 0], 
        [10, 1083, 0], 
        [10, 1078, 0], 
        [10, 1077, 0], 
        [10, 1076, 0], 
        [10, 1075, 0], 
        [10, 1074, 0], 
        [10, 1049, 0], 
        [10, 1021, 0], 
        [10, 742, 0], 
        [10, 741, 0], 
        [10, 740, 0], 
        [10, 378, 0], 
        [10, 377, 0], 
        [10, 376, 0], 
        [10, 14, 0], 
        [10, 13, 0], 
        [10, 12, 0]
      ]
    }, 
    {
      "op": "broadcast_div", 
      "name": "broadcast_div51", 
      "inputs": [[671, 0, 0], [30, 0, 0]]
    }, 
    {
      "op": "Concat", 
      "name": "concat108", 
      "attrs": {
        "dim": "1", 
        "num_args": "3"
      }, 
      "inputs": [[39, 1105, 0], [32, 0, 0], [672, 0, 0]]
    }, 
    {
      "op": "FullyConnected", 
      "name": "lstm_l_0t12_i2h", 
      "attrs": {"num_hidden": "160"}, 
      "inputs": [[673, 0, 0], [72, 0, 0], [73, 0, 0]]
    }, 
    {
      "op": "ones_like", 
      "name": "ones_like196", 
      "inputs": [[644, 0, 0]]
    }, 
    {
      "op": "Dropout", 
      "name": "dropout192", 
      "attrs": {"p": "0.1"}, 
      "inputs": [[675, 0, 0]]
    }, 
    {
      "op": "where", 
      "name": "where451", 
      "inputs": [[676, 0, 0], [644, 0, 0], [628, 0, 0]]
    }, 
    {
      "op": "where", 
      "name": "where457", 
      "inputs": [[36, 1105, 0], [75, 0, 0], [677, 0, 0]]
    }, 
    {
      "op": "FullyConnected", 
      "name": "lstm_l_0t12_h2h", 
      "attrs": {"num_hidden": "160"}, 
      "inputs": [[678, 0, 0], [77, 0, 0], [78, 0, 0]]
    }, 
    {
      "op": "elemwise_add", 
      "name": "_plus196", 
      "inputs": [[674, 0, 0], [679, 0, 0]]
    }, 
    {
      "op": "SliceChannel", 
      "name": "lstm_l_0t12_slice", 
      "attrs": {"num_outputs": "4"}, 
      "inputs": [[680, 0, 0]]
    }, 
    {
      "op": "Activation", 
      "name": "lstm_l_0t12_o", 
      "attrs": {"act_type": "sigmoid"}, 
      "inputs": [[681, 3, 0]]
    }, 
    {
      "op": "Activation", 
      "name": "lstm_l_0t12_f", 
      "attrs": {"act_type": "sigmoid"}, 
      "inputs": [[681, 1, 0]]
    }, 
    {
      "op": "ones_like", 
      "name": "ones_like197", 
      "inputs": [[642, 0, 0]]
    }, 
    {
      "op": "Dropout", 
      "name": "dropout193", 
      "attrs": {"p": "0.1"}, 
      "inputs": [[684, 0, 0]]
    }, 
    {
      "op": "where", 
      "name": "where452", 
      "inputs": [[685, 0, 0], [642, 0, 0], [637, 0, 0]]
    }, 
    {
      "op": "where", 
      "name": "where458", 
      "inputs": [[36, 1105, 0], [84, 0, 0], [686, 0, 0]]
    }, 
    {
      "op": "elemwise_mul", 
      "name": "_mul744", 
      "inputs": [[683, 0, 0], [687, 0, 0]]
    }, 
    {
      "op": "Activation", 
      "name": "lstm_l_0t12_i", 
      "attrs": {"act_type": "sigmoid"}, 
      "inputs": [[681, 0, 0]]
    }, 
    {
      "op": "Activation", 
      "name": "lstm_l_0t12_c", 
      "attrs": {"act_type": "tanh"}, 
      "inputs": [[681, 2, 0]]
    }, 
    {
      "op": "elemwise_mul", 
      "name": "_mul745", 
      "inputs": [[689, 0, 0], [690, 0, 0]]
    }, 
    {
      "op": "elemwise_add", 
      "name": "lstm_l_0t12_state", 
      "inputs": [[688, 0, 0], [691, 0, 0]]
    }, 
    {
      "op": "Activation", 
      "name": "activation196", 
      "attrs": {"act_type": "tanh"}, 
      "inputs": [[692, 0, 0]]
    }, 
    {
      "op": "elemwise_mul", 
      "name": "lstm_l_0t12_out", 
      "inputs": [[682, 0, 0], [693, 0, 0]]
    }, 
    {
      "op": "FullyConnected", 
      "name": "lstm_l_1t12_i2h", 
      "attrs": {"num_hidden": "160"}, 
      "inputs": [[694, 0, 0], [93, 0, 0], [94, 0, 0]]
    }, 
    {
      "op": "ones_like", 
      "name": "ones_like198", 
      "inputs": [[665, 0, 0]]
    }, 
    {
      "op": "Dropout", 
      "name": "dropout194", 
      "attrs": {"p": "0.1"}, 
      "inputs": [[696, 0, 0]]
    }, 
    {
      "op": "where", 
      "name": "where453", 
      "inputs": [[697, 0, 0], [665, 0, 0], [649, 0, 0]]
    }, 
    {
      "op": "where", 
      "name": "where459", 
      "inputs": [[36, 1105, 0], [96, 0, 0], [698, 0, 0]]
    }, 
    {
      "op": "FullyConnected", 
      "name": "lstm_l_1t12_h2h", 
      "attrs": {"num_hidden": "160"}, 
      "inputs": [[699, 0, 0], [98, 0, 0], [99, 0, 0]]
    }, 
    {
      "op": "elemwise_add", 
      "name": "_plus197", 
      "inputs": [[695, 0, 0], [700, 0, 0]]
    }, 
    {
      "op": "SliceChannel", 
      "name": "lstm_l_1t12_slice", 
      "attrs": {"num_outputs": "4"}, 
      "inputs": [[701, 0, 0]]
    }, 
    {
      "op": "Activation", 
      "name": "lstm_l_1t12_o", 
      "attrs": {"act_type": "sigmoid"}, 
      "inputs": [[702, 3, 0]]
    }, 
    {
      "op": "Activation", 
      "name": "lstm_l_1t12_f", 
      "attrs": {"act_type": "sigmoid"}, 
      "inputs": [[702, 1, 0]]
    }, 
    {
      "op": "ones_like", 
      "name": "ones_like199", 
      "inputs": [[663, 0, 0]]
    }, 
    {
      "op": "Dropout", 
      "name": "dropout195", 
      "attrs": {"p": "0.1"}, 
      "inputs": [[705, 0, 0]]
    }, 
    {
      "op": "where", 
      "name": "where454", 
      "inputs": [[706, 0, 0], [663, 0, 0], [658, 0, 0]]
    }, 
    {
      "op": "where", 
      "name": "where460", 
      "inputs": [[36, 1105, 0], [105, 0, 0], [707, 0, 0]]
    }, 
    {
      "op": "elemwise_mul", 
      "name": "_mul746", 
      "inputs": [[704, 0, 0], [708, 0, 0]]
    }, 
    {
      "op": "Activation", 
      "name": "lstm_l_1t12_i", 
      "attrs": {"act_type": "sigmoid"}, 
      "inputs": [[702, 0, 0]]
    }, 
    {
      "op": "Activation", 
      "name": "lstm_l_1t12_c", 
      "attrs": {"act_type": "tanh"}, 
      "inputs": [[702, 2, 0]]
    }, 
    {
      "op": "elemwise_mul", 
      "name": "_mul747", 
      "inputs": [[710, 0, 0], [711, 0, 0]]
    }, 
    {
      "op": "elemwise_add", 
      "name": "lstm_l_1t12_state", 
      "inputs": [[709, 0, 0], [712, 0, 0]]
    }, 
    {
      "op": "Activation", 
      "name": "activation197", 
      "attrs": {"act_type": "tanh"}, 
      "inputs": [[713, 0, 0]]
    }, 
    {
      "op": "elemwise_mul", 
      "name": "lstm_l_1t12_out", 
      "inputs": [[703, 0, 0], [714, 0, 0]]
    }, 
    {
      "op": "elemwise_add", 
      "name": "lstm_l_1t12_out_plus_residual", 
      "inputs": [[715, 0, 0], [694, 0, 0]]
    }, 
    {
      "op": "FullyConnected", 
      "name": "fullyconnected147", 
      "attrs": {"num_hidden": "1"}, 
      "inputs": [[716, 0, 0], [115, 0, 0], [116, 0, 0]]
    }, 
    {
      "op": "elemwise_mul", 
      "name": "_mul754", 
      "inputs": [[717, 0, 0], [30, 0, 0]]
    }, 
    {
      "op": "where", 
      "name": "where465", 
      "inputs": [[36, 1105, 0], [56, 0, 0], [718, 0, 0]]
    }, 
    {
      "op": "where", 
      "name": "where466", 
      "inputs": [[15, 1105, 0], [10, 1105, 0], [719, 0, 0]]
    }, 
    {
      "op": "Concat", 
      "name": "concat109", 
      "attrs": {
        "dim": "1", 
        "num_args": "30"
      }, 
      "inputs": [
        [720, 0, 0], 
        [670, 0, 0], 
        [620, 0, 0], 
        [570, 0, 0], 
        [520, 0, 0], 
        [470, 0, 0], 
        [420, 0, 0], 
        [370, 0, 0], 
        [120, 0, 0], 
        [10, 1092, 0], 
        [10, 1091, 0], 
        [10, 1086, 0], 
        [10, 1085, 0], 
        [10, 1084, 0], 
        [10, 1079, 0], 
        [10, 1078, 0], 
        [10, 1077, 0], 
        [10, 1076, 0], 
        [10, 1075, 0], 
        [10, 1050, 0], 
        [10, 1022, 0], 
        [10, 743, 0], 
        [10, 742, 0], 
        [10, 741, 0], 
        [10, 379, 0], 
        [10, 378, 0], 
        [10, 377, 0], 
        [10, 15, 0], 
        [10, 14, 0], 
        [10, 13, 0]
      ]
    }, 
    {
      "op": "broadcast_div", 
      "name": "broadcast_div52", 
      "inputs": [[721, 0, 0], [30, 0, 0]]
    }, 
    {
      "op": "Concat", 
      "name": "concat110", 
      "attrs": {
        "dim": "1", 
        "num_args": "3"
      }, 
      "inputs": [[39, 1106, 0], [32, 0, 0], [722, 0, 0]]
    }, 
    {
      "op": "FullyConnected", 
      "name": "lstm_l_0t13_i2h", 
      "attrs": {"num_hidden": "160"}, 
      "inputs": [[723, 0, 0], [72, 0, 0], [73, 0, 0]]
    }, 
    {
      "op": "ones_like", 
      "name": "ones_like200", 
      "inputs": [[694, 0, 0]]
    }, 
    {
      "op": "Dropout", 
      "name": "dropout196", 
      "attrs": {"p": "0.1"}, 
      "inputs": [[725, 0, 0]]
    }, 
    {
      "op": "where", 
      "name": "where461", 
      "inputs": [[726, 0, 0], [694, 0, 0], [678, 0, 0]]
    }, 
    {
      "op": "where", 
      "name": "where467", 
      "inputs": [[36, 1106, 0], [75, 0, 0], [727, 0, 0]]
    }, 
    {
      "op": "FullyConnected", 
      "name": "lstm_l_0t13_h2h", 
      "attrs": {"num_hidden": "160"}, 
      "inputs": [[728, 0, 0], [77, 0, 0], [78, 0, 0]]
    }, 
    {
      "op": "elemwise_add", 
      "name": "_plus200", 
      "inputs": [[724, 0, 0], [729, 0, 0]]
    }, 
    {
      "op": "SliceChannel", 
      "name": "lstm_l_0t13_slice", 
      "attrs": {"num_outputs": "4"}, 
      "inputs": [[730, 0, 0]]
    }, 
    {
      "op": "Activation", 
      "name": "lstm_l_0t13_o", 
      "attrs": {"act_type": "sigmoid"}, 
      "inputs": [[731, 3, 0]]
    }, 
    {
      "op": "Activation", 
      "name": "lstm_l_0t13_f", 
      "attrs": {"act_type": "sigmoid"}, 
      "inputs": [[731, 1, 0]]
    }, 
    {
      "op": "ones_like", 
      "name": "ones_like201", 
      "inputs": [[692, 0, 0]]
    }, 
    {
      "op": "Dropout", 
      "name": "dropout197", 
      "attrs": {"p": "0.1"}, 
      "inputs": [[734, 0, 0]]
    }, 
    {
      "op": "where", 
      "name": "where462", 
      "inputs": [[735, 0, 0], [692, 0, 0], [687, 0, 0]]
    }, 
    {
      "op": "where", 
      "name": "where468", 
      "inputs": [[36, 1106, 0], [84, 0, 0], [736, 0, 0]]
    }, 
    {
      "op": "elemwise_mul", 
      "name": "_mul759", 
      "inputs": [[733, 0, 0], [737, 0, 0]]
    }, 
    {
      "op": "Activation", 
      "name": "lstm_l_0t13_i", 
      "attrs": {"act_type": "sigmoid"}, 
      "inputs": [[731, 0, 0]]
    }, 
    {
      "op": "Activation", 
      "name": "lstm_l_0t13_c", 
      "attrs": {"act_type": "tanh"}, 
      "inputs": [[731, 2, 0]]
    }, 
    {
      "op": "elemwise_mul", 
      "name": "_mul760", 
      "inputs": [[739, 0, 0], [740, 0, 0]]
    }, 
    {
      "op": "elemwise_add", 
      "name": "lstm_l_0t13_state", 
      "inputs": [[738, 0, 0], [741, 0, 0]]
    }, 
    {
      "op": "Activation", 
      "name": "activation200", 
      "attrs": {"act_type": "tanh"}, 
      "inputs": [[742, 0, 0]]
    }, 
    {
      "op": "elemwise_mul", 
      "name": "lstm_l_0t13_out", 
      "inputs": [[732, 0, 0], [743, 0, 0]]
    }, 
    {
      "op": "FullyConnected", 
      "name": "lstm_l_1t13_i2h", 
      "attrs": {"num_hidden": "160"}, 
      "inputs": [[744, 0, 0], [93, 0, 0], [94, 0, 0]]
    }, 
    {
      "op": "ones_like", 
      "name": "ones_like202", 
      "inputs": [[715, 0, 0]]
    }, 
    {
      "op": "Dropout", 
      "name": "dropout198", 
      "attrs": {"p": "0.1"}, 
      "inputs": [[746, 0, 0]]
    }, 
    {
      "op": "where", 
      "name": "where463", 
      "inputs": [[747, 0, 0], [715, 0, 0], [699, 0, 0]]
    }, 
    {
      "op": "where", 
      "name": "where469", 
      "inputs": [[36, 1106, 0], [96, 0, 0], [748, 0, 0]]
    }, 
    {
      "op": "FullyConnected", 
      "name": "lstm_l_1t13_h2h", 
      "attrs": {"num_hidden": "160"}, 
      "inputs": [[749, 0, 0], [98, 0, 0], [99, 0, 0]]
    }, 
    {
      "op": "elemwise_add", 
      "name": "_plus201", 
      "inputs": [[745, 0, 0], [750, 0, 0]]
    }, 
    {
      "op": "SliceChannel", 
      "name": "lstm_l_1t13_slice", 
      "attrs": {"num_outputs": "4"}, 
      "inputs": [[751, 0, 0]]
    }, 
    {
      "op": "Activation", 
      "name": "lstm_l_1t13_o", 
      "attrs": {"act_type": "sigmoid"}, 
      "inputs": [[752, 3, 0]]
    }, 
    {
      "op": "Activation", 
      "name": "lstm_l_1t13_f", 
      "attrs": {"act_type": "sigmoid"}, 
      "inputs": [[752, 1, 0]]
    }, 
    {
      "op": "ones_like", 
      "name": "ones_like203", 
      "inputs": [[713, 0, 0]]
    }, 
    {
      "op": "Dropout", 
      "name": "dropout199", 
      "attrs": {"p": "0.1"}, 
      "inputs": [[755, 0, 0]]
    }, 
    {
      "op": "where", 
      "name": "where464", 
      "inputs": [[756, 0, 0], [713, 0, 0], [708, 0, 0]]
    }, 
    {
      "op": "where", 
      "name": "where470", 
      "inputs": [[36, 1106, 0], [105, 0, 0], [757, 0, 0]]
    }, 
    {
      "op": "elemwise_mul", 
      "name": "_mul761", 
      "inputs": [[754, 0, 0], [758, 0, 0]]
    }, 
    {
      "op": "Activation", 
      "name": "lstm_l_1t13_i", 
      "attrs": {"act_type": "sigmoid"}, 
      "inputs": [[752, 0, 0]]
    }, 
    {
      "op": "Activation", 
      "name": "lstm_l_1t13_c", 
      "attrs": {"act_type": "tanh"}, 
      "inputs": [[752, 2, 0]]
    }, 
    {
      "op": "elemwise_mul", 
      "name": "_mul762", 
      "inputs": [[760, 0, 0], [761, 0, 0]]
    }, 
    {
      "op": "elemwise_add", 
      "name": "lstm_l_1t13_state", 
      "inputs": [[759, 0, 0], [762, 0, 0]]
    }, 
    {
      "op": "Activation", 
      "name": "activation201", 
      "attrs": {"act_type": "tanh"}, 
      "inputs": [[763, 0, 0]]
    }, 
    {
      "op": "elemwise_mul", 
      "name": "lstm_l_1t13_out", 
      "inputs": [[753, 0, 0], [764, 0, 0]]
    }, 
    {
      "op": "elemwise_add", 
      "name": "lstm_l_1t13_out_plus_residual", 
      "inputs": [[765, 0, 0], [744, 0, 0]]
    }, 
    {
      "op": "FullyConnected", 
      "name": "fullyconnected150", 
      "attrs": {"num_hidden": "1"}, 
      "inputs": [[766, 0, 0], [115, 0, 0], [116, 0, 0]]
    }, 
    {
      "op": "elemwise_mul", 
      "name": "_mul769", 
      "inputs": [[767, 0, 0], [30, 0, 0]]
    }, 
    {
      "op": "where", 
      "name": "where475", 
      "inputs": [[36, 1106, 0], [55, 0, 0], [768, 0, 0]]
    }, 
    {
      "op": "where", 
      "name": "where476", 
      "inputs": [[15, 1106, 0], [10, 1106, 0], [769, 0, 0]]
    }, 
    {
      "op": "Concat", 
      "name": "concat111", 
      "attrs": {
        "dim": "1", 
        "num_args": "30"
      }, 
      "inputs": [
        [770, 0, 0], 
        [720, 0, 0], 
        [670, 0, 0], 
        [620, 0, 0], 
        [570, 0, 0], 
        [520, 0, 0], 
        [470, 0, 0], 
        [420, 0, 0], 
        [170, 0, 0], 
        [120, 0, 0], 
        [10, 1092, 0], 
        [10, 1087, 0], 
        [10, 1086, 0], 
        [10, 1085, 0], 
        [10, 1080, 0], 
        [10, 1079, 0], 
        [10, 1078, 0], 
        [10, 1077, 0], 
        [10, 1076, 0], 
        [10, 1051, 0], 
        [10, 1023, 0], 
        [10, 744, 0], 
        [10, 743, 0], 
        [10, 742, 0], 
        [10, 380, 0], 
        [10, 379, 0], 
        [10, 378, 0], 
        [10, 16, 0], 
        [10, 15, 0], 
        [10, 14, 0]
      ]
    }, 
    {
      "op": "broadcast_div", 
      "name": "broadcast_div53", 
      "inputs": [[771, 0, 0], [30, 0, 0]]
    }, 
    {
      "op": "Concat", 
      "name": "concat112", 
      "attrs": {
        "dim": "1", 
        "num_args": "3"
      }, 
      "inputs": [[39, 1107, 0], [32, 0, 0], [772, 0, 0]]
    }, 
    {
      "op": "FullyConnected", 
      "name": "lstm_l_0t14_i2h", 
      "attrs": {"num_hidden": "160"}, 
      "inputs": [[773, 0, 0], [72, 0, 0], [73, 0, 0]]
    }, 
    {
      "op": "ones_like", 
      "name": "ones_like204", 
      "inputs": [[744, 0, 0]]
    }, 
    {
      "op": "Dropout", 
      "name": "dropout200", 
      "attrs": {"p": "0.1"}, 
      "inputs": [[775, 0, 0]]
    }, 
    {
      "op": "where", 
      "name": "where471", 
      "inputs": [[776, 0, 0], [744, 0, 0], [728, 0, 0]]
    }, 
    {
      "op": "where", 
      "name": "where477", 
      "inputs": [[36, 1107, 0], [75, 0, 0], [777, 0, 0]]
    }, 
    {
      "op": "FullyConnected", 
      "name": "lstm_l_0t14_h2h", 
      "attrs": {"num_hidden": "160"}, 
      "inputs": [[778, 0, 0], [77, 0, 0], [78, 0, 0]]
    }, 
    {
      "op": "elemwise_add", 
      "name": "_plus204", 
      "inputs": [[774, 0, 0], [779, 0, 0]]
    }, 
    {
      "op": "SliceChannel", 
      "name": "lstm_l_0t14_slice", 
      "attrs": {"num_outputs": "4"}, 
      "inputs": [[780, 0, 0]]
    }, 
    {
      "op": "Activation", 
      "name": "lstm_l_0t14_o", 
      "attrs": {"act_type": "sigmoid"}, 
      "inputs": [[781, 3, 0]]
    }, 
    {
      "op": "Activation", 
      "name": "lstm_l_0t14_f", 
      "attrs": {"act_type": "sigmoid"}, 
      "inputs": [[781, 1, 0]]
    }, 
    {
      "op": "ones_like", 
      "name": "ones_like205", 
      "inputs": [[742, 0, 0]]
    }, 
    {
      "op": "Dropout", 
      "name": "dropout201", 
      "attrs": {"p": "0.1"}, 
      "inputs": [[784, 0, 0]]
    }, 
    {
      "op": "where", 
      "name": "where472", 
      "inputs": [[785, 0, 0], [742, 0, 0], [737, 0, 0]]
    }, 
    {
      "op": "where", 
      "name": "where478", 
      "inputs": [[36, 1107, 0], [84, 0, 0], [786, 0, 0]]
    }, 
    {
      "op": "elemwise_mul", 
      "name": "_mul774", 
      "inputs": [[783, 0, 0], [787, 0, 0]]
    }, 
    {
      "op": "Activation", 
      "name": "lstm_l_0t14_i", 
      "attrs": {"act_type": "sigmoid"}, 
      "inputs": [[781, 0, 0]]
    }, 
    {
      "op": "Activation", 
      "name": "lstm_l_0t14_c", 
      "attrs": {"act_type": "tanh"}, 
      "inputs": [[781, 2, 0]]
    }, 
    {
      "op": "elemwise_mul", 
      "name": "_mul775", 
      "inputs": [[789, 0, 0], [790, 0, 0]]
    }, 
    {
      "op": "elemwise_add", 
      "name": "lstm_l_0t14_state", 
      "inputs": [[788, 0, 0], [791, 0, 0]]
    }, 
    {
      "op": "Activation", 
      "name": "activation204", 
      "attrs": {"act_type": "tanh"}, 
      "inputs": [[792, 0, 0]]
    }, 
    {
      "op": "elemwise_mul", 
      "name": "lstm_l_0t14_out", 
      "inputs": [[782, 0, 0], [793, 0, 0]]
    }, 
    {
      "op": "FullyConnected", 
      "name": "lstm_l_1t14_i2h", 
      "attrs": {"num_hidden": "160"}, 
      "inputs": [[794, 0, 0], [93, 0, 0], [94, 0, 0]]
    }, 
    {
      "op": "ones_like", 
      "name": "ones_like206", 
      "inputs": [[765, 0, 0]]
    }, 
    {
      "op": "Dropout", 
      "name": "dropout202", 
      "attrs": {"p": "0.1"}, 
      "inputs": [[796, 0, 0]]
    }, 
    {
      "op": "where", 
      "name": "where473", 
      "inputs": [[797, 0, 0], [765, 0, 0], [749, 0, 0]]
    }, 
    {
      "op": "where", 
      "name": "where479", 
      "inputs": [[36, 1107, 0], [96, 0, 0], [798, 0, 0]]
    }, 
    {
      "op": "FullyConnected", 
      "name": "lstm_l_1t14_h2h", 
      "attrs": {"num_hidden": "160"}, 
      "inputs": [[799, 0, 0], [98, 0, 0], [99, 0, 0]]
    }, 
    {
      "op": "elemwise_add", 
      "name": "_plus205", 
      "inputs": [[795, 0, 0], [800, 0, 0]]
    }, 
    {
      "op": "SliceChannel", 
      "name": "lstm_l_1t14_slice", 
      "attrs": {"num_outputs": "4"}, 
      "inputs": [[801, 0, 0]]
    }, 
    {
      "op": "Activation", 
      "name": "lstm_l_1t14_o", 
      "attrs": {"act_type": "sigmoid"}, 
      "inputs": [[802, 3, 0]]
    }, 
    {
      "op": "Activation", 
      "name": "lstm_l_1t14_f", 
      "attrs": {"act_type": "sigmoid"}, 
      "inputs": [[802, 1, 0]]
    }, 
    {
      "op": "ones_like", 
      "name": "ones_like207", 
      "inputs": [[763, 0, 0]]
    }, 
    {
      "op": "Dropout", 
      "name": "dropout203", 
      "attrs": {"p": "0.1"}, 
      "inputs": [[805, 0, 0]]
    }, 
    {
      "op": "where", 
      "name": "where474", 
      "inputs": [[806, 0, 0], [763, 0, 0], [758, 0, 0]]
    }, 
    {
      "op": "where", 
      "name": "where480", 
      "inputs": [[36, 1107, 0], [105, 0, 0], [807, 0, 0]]
    }, 
    {
      "op": "elemwise_mul", 
      "name": "_mul776", 
      "inputs": [[804, 0, 0], [808, 0, 0]]
    }, 
    {
      "op": "Activation", 
      "name": "lstm_l_1t14_i", 
      "attrs": {"act_type": "sigmoid"}, 
      "inputs": [[802, 0, 0]]
    }, 
    {
      "op": "Activation", 
      "name": "lstm_l_1t14_c", 
      "attrs": {"act_type": "tanh"}, 
      "inputs": [[802, 2, 0]]
    }, 
    {
      "op": "elemwise_mul", 
      "name": "_mul777", 
      "inputs": [[810, 0, 0], [811, 0, 0]]
    }, 
    {
      "op": "elemwise_add", 
      "name": "lstm_l_1t14_state", 
      "inputs": [[809, 0, 0], [812, 0, 0]]
    }, 
    {
      "op": "Activation", 
      "name": "activation205", 
      "attrs": {"act_type": "tanh"}, 
      "inputs": [[813, 0, 0]]
    }, 
    {
      "op": "elemwise_mul", 
      "name": "lstm_l_1t14_out", 
      "inputs": [[803, 0, 0], [814, 0, 0]]
    }, 
    {
      "op": "elemwise_add", 
      "name": "lstm_l_1t14_out_plus_residual", 
      "inputs": [[815, 0, 0], [794, 0, 0]]
    }, 
    {
      "op": "FullyConnected", 
      "name": "fullyconnected153", 
      "attrs": {"num_hidden": "1"}, 
      "inputs": [[816, 0, 0], [115, 0, 0], [116, 0, 0]]
    }, 
    {
      "op": "elemwise_mul", 
      "name": "_mul784", 
      "inputs": [[817, 0, 0], [30, 0, 0]]
    }, 
    {
      "op": "where", 
      "name": "where485", 
      "inputs": [[36, 1107, 0], [54, 0, 0], [818, 0, 0]]
    }, 
    {
      "op": "where", 
      "name": "where486", 
      "inputs": [[15, 1107, 0], [10, 1107, 0], [819, 0, 0]]
    }, 
    {
      "op": "Concat", 
      "name": "concat113", 
      "attrs": {
        "dim": "1", 
        "num_args": "30"
      }, 
      "inputs": [
        [820, 0, 0], 
        [770, 0, 0], 
        [720, 0, 0], 
        [670, 0, 0], 
        [620, 0, 0], 
        [570, 0, 0], 
        [520, 0, 0], 
        [470, 0, 0], 
        [220, 0, 0], 
        [170, 0, 0], 
        [120, 0, 0], 
        [10, 1088, 0], 
        [10, 1087, 0], 
        [10, 1086, 0], 
        [10, 1081, 0], 
        [10, 1080, 0], 
        [10, 1079, 0], 
        [10, 1078, 0], 
        [10, 1077, 0], 
        [10, 1052, 0], 
        [10, 1024, 0], 
        [10, 745, 0], 
        [10, 744, 0], 
        [10, 743, 0], 
        [10, 381, 0], 
        [10, 380, 0], 
        [10, 379, 0], 
        [10, 17, 0], 
        [10, 16, 0], 
        [10, 15, 0]
      ]
    }, 
    {
      "op": "broadcast_div", 
      "name": "broadcast_div54", 
      "inputs": [[821, 0, 0], [30, 0, 0]]
    }, 
    {
      "op": "Concat", 
      "name": "concat114", 
      "attrs": {
        "dim": "1", 
        "num_args": "3"
      }, 
      "inputs": [[39, 1108, 0], [32, 0, 0], [822, 0, 0]]
    }, 
    {
      "op": "FullyConnected", 
      "name": "lstm_l_0t15_i2h", 
      "attrs": {"num_hidden": "160"}, 
      "inputs": [[823, 0, 0], [72, 0, 0], [73, 0, 0]]
    }, 
    {
      "op": "ones_like", 
      "name": "ones_like208", 
      "inputs": [[794, 0, 0]]
    }, 
    {
      "op": "Dropout", 
      "name": "dropout204", 
      "attrs": {"p": "0.1"}, 
      "inputs": [[825, 0, 0]]
    }, 
    {
      "op": "where", 
      "name": "where481", 
      "inputs": [[826, 0, 0], [794, 0, 0], [778, 0, 0]]
    }, 
    {
      "op": "where", 
      "name": "where487", 
      "inputs": [[36, 1108, 0], [75, 0, 0], [827, 0, 0]]
    }, 
    {
      "op": "FullyConnected", 
      "name": "lstm_l_0t15_h2h", 
      "attrs": {"num_hidden": "160"}, 
      "inputs": [[828, 0, 0], [77, 0, 0], [78, 0, 0]]
    }, 
    {
      "op": "elemwise_add", 
      "name": "_plus208", 
      "inputs": [[824, 0, 0], [829, 0, 0]]
    }, 
    {
      "op": "SliceChannel", 
      "name": "lstm_l_0t15_slice", 
      "attrs": {"num_outputs": "4"}, 
      "inputs": [[830, 0, 0]]
    }, 
    {
      "op": "Activation", 
      "name": "lstm_l_0t15_o", 
      "attrs": {"act_type": "sigmoid"}, 
      "inputs": [[831, 3, 0]]
    }, 
    {
      "op": "Activation", 
      "name": "lstm_l_0t15_f", 
      "attrs": {"act_type": "sigmoid"}, 
      "inputs": [[831, 1, 0]]
    }, 
    {
      "op": "ones_like", 
      "name": "ones_like209", 
      "inputs": [[792, 0, 0]]
    }, 
    {
      "op": "Dropout", 
      "name": "dropout205", 
      "attrs": {"p": "0.1"}, 
      "inputs": [[834, 0, 0]]
    }, 
    {
      "op": "where", 
      "name": "where482", 
      "inputs": [[835, 0, 0], [792, 0, 0], [787, 0, 0]]
    }, 
    {
      "op": "where", 
      "name": "where488", 
      "inputs": [[36, 1108, 0], [84, 0, 0], [836, 0, 0]]
    }, 
    {
      "op": "elemwise_mul", 
      "name": "_mul789", 
      "inputs": [[833, 0, 0], [837, 0, 0]]
    }, 
    {
      "op": "Activation", 
      "name": "lstm_l_0t15_i", 
      "attrs": {"act_type": "sigmoid"}, 
      "inputs": [[831, 0, 0]]
    }, 
    {
      "op": "Activation", 
      "name": "lstm_l_0t15_c", 
      "attrs": {"act_type": "tanh"}, 
      "inputs": [[831, 2, 0]]
    }, 
    {
      "op": "elemwise_mul", 
      "name": "_mul790", 
      "inputs": [[839, 0, 0], [840, 0, 0]]
    }, 
    {
      "op": "elemwise_add", 
      "name": "lstm_l_0t15_state", 
      "inputs": [[838, 0, 0], [841, 0, 0]]
    }, 
    {
      "op": "Activation", 
      "name": "activation208", 
      "attrs": {"act_type": "tanh"}, 
      "inputs": [[842, 0, 0]]
    }, 
    {
      "op": "elemwise_mul", 
      "name": "lstm_l_0t15_out", 
      "inputs": [[832, 0, 0], [843, 0, 0]]
    }, 
    {
      "op": "FullyConnected", 
      "name": "lstm_l_1t15_i2h", 
      "attrs": {"num_hidden": "160"}, 
      "inputs": [[844, 0, 0], [93, 0, 0], [94, 0, 0]]
    }, 
    {
      "op": "ones_like", 
      "name": "ones_like210", 
      "inputs": [[815, 0, 0]]
    }, 
    {
      "op": "Dropout", 
      "name": "dropout206", 
      "attrs": {"p": "0.1"}, 
      "inputs": [[846, 0, 0]]
    }, 
    {
      "op": "where", 
      "name": "where483", 
      "inputs": [[847, 0, 0], [815, 0, 0], [799, 0, 0]]
    }, 
    {
      "op": "where", 
      "name": "where489", 
      "inputs": [[36, 1108, 0], [96, 0, 0], [848, 0, 0]]
    }, 
    {
      "op": "FullyConnected", 
      "name": "lstm_l_1t15_h2h", 
      "attrs": {"num_hidden": "160"}, 
      "inputs": [[849, 0, 0], [98, 0, 0], [99, 0, 0]]
    }, 
    {
      "op": "elemwise_add", 
      "name": "_plus209", 
      "inputs": [[845, 0, 0], [850, 0, 0]]
    }, 
    {
      "op": "SliceChannel", 
      "name": "lstm_l_1t15_slice", 
      "attrs": {"num_outputs": "4"}, 
      "inputs": [[851, 0, 0]]
    }, 
    {
      "op": "Activation", 
      "name": "lstm_l_1t15_o", 
      "attrs": {"act_type": "sigmoid"}, 
      "inputs": [[852, 3, 0]]
    }, 
    {
      "op": "Activation", 
      "name": "lstm_l_1t15_f", 
      "attrs": {"act_type": "sigmoid"}, 
      "inputs": [[852, 1, 0]]
    }, 
    {
      "op": "ones_like", 
      "name": "ones_like211", 
      "inputs": [[813, 0, 0]]
    }, 
    {
      "op": "Dropout", 
      "name": "dropout207", 
      "attrs": {"p": "0.1"}, 
      "inputs": [[855, 0, 0]]
    }, 
    {
      "op": "where", 
      "name": "where484", 
      "inputs": [[856, 0, 0], [813, 0, 0], [808, 0, 0]]
    }, 
    {
      "op": "where", 
      "name": "where490", 
      "inputs": [[36, 1108, 0], [105, 0, 0], [857, 0, 0]]
    }, 
    {
      "op": "elemwise_mul", 
      "name": "_mul791", 
      "inputs": [[854, 0, 0], [858, 0, 0]]
    }, 
    {
      "op": "Activation", 
      "name": "lstm_l_1t15_i", 
      "attrs": {"act_type": "sigmoid"}, 
      "inputs": [[852, 0, 0]]
    }, 
    {
      "op": "Activation", 
      "name": "lstm_l_1t15_c", 
      "attrs": {"act_type": "tanh"}, 
      "inputs": [[852, 2, 0]]
    }, 
    {
      "op": "elemwise_mul", 
      "name": "_mul792", 
      "inputs": [[860, 0, 0], [861, 0, 0]]
    }, 
    {
      "op": "elemwise_add", 
      "name": "lstm_l_1t15_state", 
      "inputs": [[859, 0, 0], [862, 0, 0]]
    }, 
    {
      "op": "Activation", 
      "name": "activation209", 
      "attrs": {"act_type": "tanh"}, 
      "inputs": [[863, 0, 0]]
    }, 
    {
      "op": "elemwise_mul", 
      "name": "lstm_l_1t15_out", 
      "inputs": [[853, 0, 0], [864, 0, 0]]
    }, 
    {
      "op": "elemwise_add", 
      "name": "lstm_l_1t15_out_plus_residual", 
      "inputs": [[865, 0, 0], [844, 0, 0]]
    }, 
    {
      "op": "FullyConnected", 
      "name": "fullyconnected156", 
      "attrs": {"num_hidden": "1"}, 
      "inputs": [[866, 0, 0], [115, 0, 0], [116, 0, 0]]
    }, 
    {
      "op": "elemwise_mul", 
      "name": "_mul799", 
      "inputs": [[867, 0, 0], [30, 0, 0]]
    }, 
    {
      "op": "where", 
      "name": "where495", 
      "inputs": [[36, 1108, 0], [53, 0, 0], [868, 0, 0]]
    }, 
    {
      "op": "where", 
      "name": "where496", 
      "inputs": [[15, 1108, 0], [10, 1108, 0], [869, 0, 0]]
    }, 
    {
      "op": "Concat", 
      "name": "concat115", 
      "attrs": {
        "dim": "1", 
        "num_args": "30"
      }, 
      "inputs": [
        [870, 0, 0], 
        [820, 0, 0], 
        [770, 0, 0], 
        [720, 0, 0], 
        [670, 0, 0], 
        [620, 0, 0], 
        [570, 0, 0], 
        [520, 0, 0], 
        [270, 0, 0], 
        [220, 0, 0], 
        [170, 0, 0], 
        [10, 1089, 0], 
        [10, 1088, 0], 
        [10, 1087, 0], 
        [10, 1082, 0], 
        [10, 1081, 0], 
        [10, 1080, 0], 
        [10, 1079, 0], 
        [10, 1078, 0], 
        [10, 1053, 0], 
        [10, 1025, 0], 
        [10, 746, 0], 
        [10, 745, 0], 
        [10, 744, 0], 
        [10, 382, 0], 
        [10, 381, 0], 
        [10, 380, 0], 
        [10, 18, 0], 
        [10, 17, 0], 
        [10, 16, 0]
      ]
    }, 
    {
      "op": "broadcast_div", 
      "name": "broadcast_div55", 
      "inputs": [[871, 0, 0], [30, 0, 0]]
    }, 
    {
      "op": "Concat", 
      "name": "concat116", 
      "attrs": {
        "dim": "1", 
        "num_args": "3"
      }, 
      "inputs": [[39, 1109, 0], [32, 0, 0], [872, 0, 0]]
    }, 
    {
      "op": "FullyConnected", 
      "name": "lstm_l_0t16_i2h", 
      "attrs": {"num_hidden": "160"}, 
      "inputs": [[873, 0, 0], [72, 0, 0], [73, 0, 0]]
    }, 
    {
      "op": "ones_like", 
      "name": "ones_like212", 
      "inputs": [[844, 0, 0]]
    }, 
    {
      "op": "Dropout", 
      "name": "dropout208", 
      "attrs": {"p": "0.1"}, 
      "inputs": [[875, 0, 0]]
    }, 
    {
      "op": "where", 
      "name": "where491", 
      "inputs": [[876, 0, 0], [844, 0, 0], [828, 0, 0]]
    }, 
    {
      "op": "where", 
      "name": "where497", 
      "inputs": [[36, 1109, 0], [75, 0, 0], [877, 0, 0]]
    }, 
    {
      "op": "FullyConnected", 
      "name": "lstm_l_0t16_h2h", 
      "attrs": {"num_hidden": "160"}, 
      "inputs": [[878, 0, 0], [77, 0, 0], [78, 0, 0]]
    }, 
    {
      "op": "elemwise_add", 
      "name": "_plus212", 
      "inputs": [[874, 0, 0], [879, 0, 0]]
    }, 
    {
      "op": "SliceChannel", 
      "name": "lstm_l_0t16_slice", 
      "attrs": {"num_outputs": "4"}, 
      "inputs": [[880, 0, 0]]
    }, 
    {
      "op": "Activation", 
      "name": "lstm_l_0t16_o", 
      "attrs": {"act_type": "sigmoid"}, 
      "inputs": [[881, 3, 0]]
    }, 
    {
      "op": "Activation", 
      "name": "lstm_l_0t16_f", 
      "attrs": {"act_type": "sigmoid"}, 
      "inputs": [[881, 1, 0]]
    }, 
    {
      "op": "ones_like", 
      "name": "ones_like213", 
      "inputs": [[842, 0, 0]]
    }, 
    {
      "op": "Dropout", 
      "name": "dropout209", 
      "attrs": {"p": "0.1"}, 
      "inputs": [[884, 0, 0]]
    }, 
    {
      "op": "where", 
      "name": "where492", 
      "inputs": [[885, 0, 0], [842, 0, 0], [837, 0, 0]]
    }, 
    {
      "op": "where", 
      "name": "where498", 
      "inputs": [[36, 1109, 0], [84, 0, 0], [886, 0, 0]]
    }, 
    {
      "op": "elemwise_mul", 
      "name": "_mul804", 
      "inputs": [[883, 0, 0], [887, 0, 0]]
    }, 
    {
      "op": "Activation", 
      "name": "lstm_l_0t16_i", 
      "attrs": {"act_type": "sigmoid"}, 
      "inputs": [[881, 0, 0]]
    }, 
    {
      "op": "Activation", 
      "name": "lstm_l_0t16_c", 
      "attrs": {"act_type": "tanh"}, 
      "inputs": [[881, 2, 0]]
    }, 
    {
      "op": "elemwise_mul", 
      "name": "_mul805", 
      "inputs": [[889, 0, 0], [890, 0, 0]]
    }, 
    {
      "op": "elemwise_add", 
      "name": "lstm_l_0t16_state", 
      "inputs": [[888, 0, 0], [891, 0, 0]]
    }, 
    {
      "op": "Activation", 
      "name": "activation212", 
      "attrs": {"act_type": "tanh"}, 
      "inputs": [[892, 0, 0]]
    }, 
    {
      "op": "elemwise_mul", 
      "name": "lstm_l_0t16_out", 
      "inputs": [[882, 0, 0], [893, 0, 0]]
    }, 
    {
      "op": "FullyConnected", 
      "name": "lstm_l_1t16_i2h", 
      "attrs": {"num_hidden": "160"}, 
      "inputs": [[894, 0, 0], [93, 0, 0], [94, 0, 0]]
    }, 
    {
      "op": "ones_like", 
      "name": "ones_like214", 
      "inputs": [[865, 0, 0]]
    }, 
    {
      "op": "Dropout", 
      "name": "dropout210", 
      "attrs": {"p": "0.1"}, 
      "inputs": [[896, 0, 0]]
    }, 
    {
      "op": "where", 
      "name": "where493", 
      "inputs": [[897, 0, 0], [865, 0, 0], [849, 0, 0]]
    }, 
    {
      "op": "where", 
      "name": "where499", 
      "inputs": [[36, 1109, 0], [96, 0, 0], [898, 0, 0]]
    }, 
    {
      "op": "FullyConnected", 
      "name": "lstm_l_1t16_h2h", 
      "attrs": {"num_hidden": "160"}, 
      "inputs": [[899, 0, 0], [98, 0, 0], [99, 0, 0]]
    }, 
    {
      "op": "elemwise_add", 
      "name": "_plus213", 
      "inputs": [[895, 0, 0], [900, 0, 0]]
    }, 
    {
      "op": "SliceChannel", 
      "name": "lstm_l_1t16_slice", 
      "attrs": {"num_outputs": "4"}, 
      "inputs": [[901, 0, 0]]
    }, 
    {
      "op": "Activation", 
      "name": "lstm_l_1t16_o", 
      "attrs": {"act_type": "sigmoid"}, 
      "inputs": [[902, 3, 0]]
    }, 
    {
      "op": "Activation", 
      "name": "lstm_l_1t16_f", 
      "attrs": {"act_type": "sigmoid"}, 
      "inputs": [[902, 1, 0]]
    }, 
    {
      "op": "ones_like", 
      "name": "ones_like215", 
      "inputs": [[863, 0, 0]]
    }, 
    {
      "op": "Dropout", 
      "name": "dropout211", 
      "attrs": {"p": "0.1"}, 
      "inputs": [[905, 0, 0]]
    }, 
    {
      "op": "where", 
      "name": "where494", 
      "inputs": [[906, 0, 0], [863, 0, 0], [858, 0, 0]]
    }, 
    {
      "op": "where", 
      "name": "where500", 
      "inputs": [[36, 1109, 0], [105, 0, 0], [907, 0, 0]]
    }, 
    {
      "op": "elemwise_mul", 
      "name": "_mul806", 
      "inputs": [[904, 0, 0], [908, 0, 0]]
    }, 
    {
      "op": "Activation", 
      "name": "lstm_l_1t16_i", 
      "attrs": {"act_type": "sigmoid"}, 
      "inputs": [[902, 0, 0]]
    }, 
    {
      "op": "Activation", 
      "name": "lstm_l_1t16_c", 
      "attrs": {"act_type": "tanh"}, 
      "inputs": [[902, 2, 0]]
    }, 
    {
      "op": "elemwise_mul", 
      "name": "_mul807", 
      "inputs": [[910, 0, 0], [911, 0, 0]]
    }, 
    {
      "op": "elemwise_add", 
      "name": "lstm_l_1t16_state", 
      "inputs": [[909, 0, 0], [912, 0, 0]]
    }, 
    {
      "op": "Activation", 
      "name": "activation213", 
      "attrs": {"act_type": "tanh"}, 
      "inputs": [[913, 0, 0]]
    }, 
    {
      "op": "elemwise_mul", 
      "name": "lstm_l_1t16_out", 
      "inputs": [[903, 0, 0], [914, 0, 0]]
    }, 
    {
      "op": "elemwise_add", 
      "name": "lstm_l_1t16_out_plus_residual", 
      "inputs": [[915, 0, 0], [894, 0, 0]]
    }, 
    {
      "op": "FullyConnected", 
      "name": "fullyconnected159", 
      "attrs": {"num_hidden": "1"}, 
      "inputs": [[916, 0, 0], [115, 0, 0], [116, 0, 0]]
    }, 
    {
      "op": "elemwise_mul", 
      "name": "_mul814", 
      "inputs": [[917, 0, 0], [30, 0, 0]]
    }, 
    {
      "op": "where", 
      "name": "where505", 
      "inputs": [[36, 1109, 0], [52, 0, 0], [918, 0, 0]]
    }, 
    {
      "op": "where", 
      "name": "where506", 
      "inputs": [[15, 1109, 0], [10, 1109, 0], [919, 0, 0]]
    }, 
    {
      "op": "Concat", 
      "name": "concat117", 
      "attrs": {
        "dim": "1", 
        "num_args": "30"
      }, 
      "inputs": [
        [920, 0, 0], 
        [870, 0, 0], 
        [820, 0, 0], 
        [770, 0, 0], 
        [720, 0, 0], 
        [670, 0, 0], 
        [620, 0, 0], 
        [570, 0, 0], 
        [320, 0, 0], 
        [270, 0, 0], 
        [220, 0, 0], 
        [10, 1090, 0], 
        [10, 1089, 0], 
        [10, 1088, 0], 
        [10, 1083, 0], 
        [10, 1082, 0], 
        [10, 1081, 0], 
        [10, 1080, 0], 
        [10, 1079, 0], 
        [10, 1054, 0], 
        [10, 1026, 0], 
        [10, 747, 0], 
        [10, 746, 0], 
        [10, 745, 0], 
        [10, 383, 0], 
        [10, 382, 0], 
        [10, 381, 0], 
        [10, 19, 0], 
        [10, 18, 0], 
        [10, 17, 0]
      ]
    }, 
    {
      "op": "broadcast_div", 
      "name": "broadcast_div56", 
      "inputs": [[921, 0, 0], [30, 0, 0]]
    }, 
    {
      "op": "Concat", 
      "name": "concat118", 
      "attrs": {
        "dim": "1", 
        "num_args": "3"
      }, 
      "inputs": [[39, 1110, 0], [32, 0, 0], [922, 0, 0]]
    }, 
    {
      "op": "FullyConnected", 
      "name": "lstm_l_0t17_i2h", 
      "attrs": {"num_hidden": "160"}, 
      "inputs": [[923, 0, 0], [72, 0, 0], [73, 0, 0]]
    }, 
    {
      "op": "ones_like", 
      "name": "ones_like216", 
      "inputs": [[894, 0, 0]]
    }, 
    {
      "op": "Dropout", 
      "name": "dropout212", 
      "attrs": {"p": "0.1"}, 
      "inputs": [[925, 0, 0]]
    }, 
    {
      "op": "where", 
      "name": "where501", 
      "inputs": [[926, 0, 0], [894, 0, 0], [878, 0, 0]]
    }, 
    {
      "op": "where", 
      "name": "where507", 
      "inputs": [[36, 1110, 0], [75, 0, 0], [927, 0, 0]]
    }, 
    {
      "op": "FullyConnected", 
      "name": "lstm_l_0t17_h2h", 
      "attrs": {"num_hidden": "160"}, 
      "inputs": [[928, 0, 0], [77, 0, 0], [78, 0, 0]]
    }, 
    {
      "op": "elemwise_add", 
      "name": "_plus216", 
      "inputs": [[924, 0, 0], [929, 0, 0]]
    }, 
    {
      "op": "SliceChannel", 
      "name": "lstm_l_0t17_slice", 
      "attrs": {"num_outputs": "4"}, 
      "inputs": [[930, 0, 0]]
    }, 
    {
      "op": "Activation", 
      "name": "lstm_l_0t17_o", 
      "attrs": {"act_type": "sigmoid"}, 
      "inputs": [[931, 3, 0]]
    }, 
    {
      "op": "Activation", 
      "name": "lstm_l_0t17_f", 
      "attrs": {"act_type": "sigmoid"}, 
      "inputs": [[931, 1, 0]]
    }, 
    {
      "op": "ones_like", 
      "name": "ones_like217", 
      "inputs": [[892, 0, 0]]
    }, 
    {
      "op": "Dropout", 
      "name": "dropout213", 
      "attrs": {"p": "0.1"}, 
      "inputs": [[934, 0, 0]]
    }, 
    {
      "op": "where", 
      "name": "where502", 
      "inputs": [[935, 0, 0], [892, 0, 0], [887, 0, 0]]
    }, 
    {
      "op": "where", 
      "name": "where508", 
      "inputs": [[36, 1110, 0], [84, 0, 0], [936, 0, 0]]
    }, 
    {
      "op": "elemwise_mul", 
      "name": "_mul819", 
      "inputs": [[933, 0, 0], [937, 0, 0]]
    }, 
    {
      "op": "Activation", 
      "name": "lstm_l_0t17_i", 
      "attrs": {"act_type": "sigmoid"}, 
      "inputs": [[931, 0, 0]]
    }, 
    {
      "op": "Activation", 
      "name": "lstm_l_0t17_c", 
      "attrs": {"act_type": "tanh"}, 
      "inputs": [[931, 2, 0]]
    }, 
    {
      "op": "elemwise_mul", 
      "name": "_mul820", 
      "inputs": [[939, 0, 0], [940, 0, 0]]
    }, 
    {
      "op": "elemwise_add", 
      "name": "lstm_l_0t17_state", 
      "inputs": [[938, 0, 0], [941, 0, 0]]
    }, 
    {
      "op": "Activation", 
      "name": "activation216", 
      "attrs": {"act_type": "tanh"}, 
      "inputs": [[942, 0, 0]]
    }, 
    {
      "op": "elemwise_mul", 
      "name": "lstm_l_0t17_out", 
      "inputs": [[932, 0, 0], [943, 0, 0]]
    }, 
    {
      "op": "FullyConnected", 
      "name": "lstm_l_1t17_i2h", 
      "attrs": {"num_hidden": "160"}, 
      "inputs": [[944, 0, 0], [93, 0, 0], [94, 0, 0]]
    }, 
    {
      "op": "ones_like", 
      "name": "ones_like218", 
      "inputs": [[915, 0, 0]]
    }, 
    {
      "op": "Dropout", 
      "name": "dropout214", 
      "attrs": {"p": "0.1"}, 
      "inputs": [[946, 0, 0]]
    }, 
    {
      "op": "where", 
      "name": "where503", 
      "inputs": [[947, 0, 0], [915, 0, 0], [899, 0, 0]]
    }, 
    {
      "op": "where", 
      "name": "where509", 
      "inputs": [[36, 1110, 0], [96, 0, 0], [948, 0, 0]]
    }, 
    {
      "op": "FullyConnected", 
      "name": "lstm_l_1t17_h2h", 
      "attrs": {"num_hidden": "160"}, 
      "inputs": [[949, 0, 0], [98, 0, 0], [99, 0, 0]]
    }, 
    {
      "op": "elemwise_add", 
      "name": "_plus217", 
      "inputs": [[945, 0, 0], [950, 0, 0]]
    }, 
    {
      "op": "SliceChannel", 
      "name": "lstm_l_1t17_slice", 
      "attrs": {"num_outputs": "4"}, 
      "inputs": [[951, 0, 0]]
    }, 
    {
      "op": "Activation", 
      "name": "lstm_l_1t17_o", 
      "attrs": {"act_type": "sigmoid"}, 
      "inputs": [[952, 3, 0]]
    }, 
    {
      "op": "Activation", 
      "name": "lstm_l_1t17_f", 
      "attrs": {"act_type": "sigmoid"}, 
      "inputs": [[952, 1, 0]]
    }, 
    {
      "op": "ones_like", 
      "name": "ones_like219", 
      "inputs": [[913, 0, 0]]
    }, 
    {
      "op": "Dropout", 
      "name": "dropout215", 
      "attrs": {"p": "0.1"}, 
      "inputs": [[955, 0, 0]]
    }, 
    {
      "op": "where", 
      "name": "where504", 
      "inputs": [[956, 0, 0], [913, 0, 0], [908, 0, 0]]
    }, 
    {
      "op": "where", 
      "name": "where510", 
      "inputs": [[36, 1110, 0], [105, 0, 0], [957, 0, 0]]
    }, 
    {
      "op": "elemwise_mul", 
      "name": "_mul821", 
      "inputs": [[954, 0, 0], [958, 0, 0]]
    }, 
    {
      "op": "Activation", 
      "name": "lstm_l_1t17_i", 
      "attrs": {"act_type": "sigmoid"}, 
      "inputs": [[952, 0, 0]]
    }, 
    {
      "op": "Activation", 
      "name": "lstm_l_1t17_c", 
      "attrs": {"act_type": "tanh"}, 
      "inputs": [[952, 2, 0]]
    }, 
    {
      "op": "elemwise_mul", 
      "name": "_mul822", 
      "inputs": [[960, 0, 0], [961, 0, 0]]
    }, 
    {
      "op": "elemwise_add", 
      "name": "lstm_l_1t17_state", 
      "inputs": [[959, 0, 0], [962, 0, 0]]
    }, 
    {
      "op": "Activation", 
      "name": "activation217", 
      "attrs": {"act_type": "tanh"}, 
      "inputs": [[963, 0, 0]]
    }, 
    {
      "op": "elemwise_mul", 
      "name": "lstm_l_1t17_out", 
      "inputs": [[953, 0, 0], [964, 0, 0]]
    }, 
    {
      "op": "elemwise_add", 
      "name": "lstm_l_1t17_out_plus_residual", 
      "inputs": [[965, 0, 0], [944, 0, 0]]
    }, 
    {
      "op": "FullyConnected", 
      "name": "fullyconnected162", 
      "attrs": {"num_hidden": "1"}, 
      "inputs": [[966, 0, 0], [115, 0, 0], [116, 0, 0]]
    }, 
    {
      "op": "elemwise_mul", 
      "name": "_mul829", 
      "inputs": [[967, 0, 0], [30, 0, 0]]
    }, 
    {
      "op": "where", 
      "name": "where515", 
      "inputs": [[36, 1110, 0], [51, 0, 0], [968, 0, 0]]
    }, 
    {
      "op": "where", 
      "name": "where516", 
      "inputs": [[15, 1110, 0], [10, 1110, 0], [969, 0, 0]]
    }, 
    {
      "op": "Concat", 
      "name": "concat119", 
      "attrs": {
        "dim": "1", 
        "num_args": "30"
      }, 
      "inputs": [
        [970, 0, 0], 
        [920, 0, 0], 
        [870, 0, 0], 
        [820, 0, 0], 
        [770, 0, 0], 
        [720, 0, 0], 
        [670, 0, 0], 
        [620, 0, 0], 
        [370, 0, 0], 
        [320, 0, 0], 
        [270, 0, 0], 
        [10, 1091, 0], 
        [10, 1090, 0], 
        [10, 1089, 0], 
        [10, 1084, 0], 
        [10, 1083, 0], 
        [10, 1082, 0], 
        [10, 1081, 0], 
        [10, 1080, 0], 
        [10, 1055, 0], 
        [10, 1027, 0], 
        [10, 748, 0], 
        [10, 747, 0], 
        [10, 746, 0], 
        [10, 384, 0], 
        [10, 383, 0], 
        [10, 382, 0], 
        [10, 20, 0], 
        [10, 19, 0], 
        [10, 18, 0]
      ]
    }, 
    {
      "op": "broadcast_div", 
      "name": "broadcast_div57", 
      "inputs": [[971, 0, 0], [30, 0, 0]]
    }, 
    {
      "op": "Concat", 
      "name": "concat120", 
      "attrs": {
        "dim": "1", 
        "num_args": "3"
      }, 
      "inputs": [[39, 1111, 0], [32, 0, 0], [972, 0, 0]]
    }, 
    {
      "op": "FullyConnected", 
      "name": "lstm_l_0t18_i2h", 
      "attrs": {"num_hidden": "160"}, 
      "inputs": [[973, 0, 0], [72, 0, 0], [73, 0, 0]]
    }, 
    {
      "op": "ones_like", 
      "name": "ones_like220", 
      "inputs": [[944, 0, 0]]
    }, 
    {
      "op": "Dropout", 
      "name": "dropout216", 
      "attrs": {"p": "0.1"}, 
      "inputs": [[975, 0, 0]]
    }, 
    {
      "op": "where", 
      "name": "where511", 
      "inputs": [[976, 0, 0], [944, 0, 0], [928, 0, 0]]
    }, 
    {
      "op": "where", 
      "name": "where517", 
      "inputs": [[36, 1111, 0], [75, 0, 0], [977, 0, 0]]
    }, 
    {
      "op": "FullyConnected", 
      "name": "lstm_l_0t18_h2h", 
      "attrs": {"num_hidden": "160"}, 
      "inputs": [[978, 0, 0], [77, 0, 0], [78, 0, 0]]
    }, 
    {
      "op": "elemwise_add", 
      "name": "_plus220", 
      "inputs": [[974, 0, 0], [979, 0, 0]]
    }, 
    {
      "op": "SliceChannel", 
      "name": "lstm_l_0t18_slice", 
      "attrs": {"num_outputs": "4"}, 
      "inputs": [[980, 0, 0]]
    }, 
    {
      "op": "Activation", 
      "name": "lstm_l_0t18_o", 
      "attrs": {"act_type": "sigmoid"}, 
      "inputs": [[981, 3, 0]]
    }, 
    {
      "op": "Activation", 
      "name": "lstm_l_0t18_f", 
      "attrs": {"act_type": "sigmoid"}, 
      "inputs": [[981, 1, 0]]
    }, 
    {
      "op": "ones_like", 
      "name": "ones_like221", 
      "inputs": [[942, 0, 0]]
    }, 
    {
      "op": "Dropout", 
      "name": "dropout217", 
      "attrs": {"p": "0.1"}, 
      "inputs": [[984, 0, 0]]
    }, 
    {
      "op": "where", 
      "name": "where512", 
      "inputs": [[985, 0, 0], [942, 0, 0], [937, 0, 0]]
    }, 
    {
      "op": "where", 
      "name": "where518", 
      "inputs": [[36, 1111, 0], [84, 0, 0], [986, 0, 0]]
    }, 
    {
      "op": "elemwise_mul", 
      "name": "_mul834", 
      "inputs": [[983, 0, 0], [987, 0, 0]]
    }, 
    {
      "op": "Activation", 
      "name": "lstm_l_0t18_i", 
      "attrs": {"act_type": "sigmoid"}, 
      "inputs": [[981, 0, 0]]
    }, 
    {
      "op": "Activation", 
      "name": "lstm_l_0t18_c", 
      "attrs": {"act_type": "tanh"}, 
      "inputs": [[981, 2, 0]]
    }, 
    {
      "op": "elemwise_mul", 
      "name": "_mul835", 
      "inputs": [[989, 0, 0], [990, 0, 0]]
    }, 
    {
      "op": "elemwise_add", 
      "name": "lstm_l_0t18_state", 
      "inputs": [[988, 0, 0], [991, 0, 0]]
    }, 
    {
      "op": "Activation", 
      "name": "activation220", 
      "attrs": {"act_type": "tanh"}, 
      "inputs": [[992, 0, 0]]
    }, 
    {
      "op": "elemwise_mul", 
      "name": "lstm_l_0t18_out", 
      "inputs": [[982, 0, 0], [993, 0, 0]]
    }, 
    {
      "op": "FullyConnected", 
      "name": "lstm_l_1t18_i2h", 
      "attrs": {"num_hidden": "160"}, 
      "inputs": [[994, 0, 0], [93, 0, 0], [94, 0, 0]]
    }, 
    {
      "op": "ones_like", 
      "name": "ones_like222", 
      "inputs": [[965, 0, 0]]
    }, 
    {
      "op": "Dropout", 
      "name": "dropout218", 
      "attrs": {"p": "0.1"}, 
      "inputs": [[996, 0, 0]]
    }, 
    {
      "op": "where", 
      "name": "where513", 
      "inputs": [[997, 0, 0], [965, 0, 0], [949, 0, 0]]
    }, 
    {
      "op": "where", 
      "name": "where519", 
      "inputs": [[36, 1111, 0], [96, 0, 0], [998, 0, 0]]
    }, 
    {
      "op": "FullyConnected", 
      "name": "lstm_l_1t18_h2h", 
      "attrs": {"num_hidden": "160"}, 
      "inputs": [[999, 0, 0], [98, 0, 0], [99, 0, 0]]
    }, 
    {
      "op": "elemwise_add", 
      "name": "_plus221", 
      "inputs": [[995, 0, 0], [1000, 0, 0]]
    }, 
    {
      "op": "SliceChannel", 
      "name": "lstm_l_1t18_slice", 
      "attrs": {"num_outputs": "4"}, 
      "inputs": [[1001, 0, 0]]
    }, 
    {
      "op": "Activation", 
      "name": "lstm_l_1t18_o", 
      "attrs": {"act_type": "sigmoid"}, 
      "inputs": [[1002, 3, 0]]
    }, 
    {
      "op": "Activation", 
      "name": "lstm_l_1t18_f", 
      "attrs": {"act_type": "sigmoid"}, 
      "inputs": [[1002, 1, 0]]
    }, 
    {
      "op": "ones_like", 
      "name": "ones_like223", 
      "inputs": [[963, 0, 0]]
    }, 
    {
      "op": "Dropout", 
      "name": "dropout219", 
      "attrs": {"p": "0.1"}, 
      "inputs": [[1005, 0, 0]]
    }, 
    {
      "op": "where", 
      "name": "where514", 
      "inputs": [[1006, 0, 0], [963, 0, 0], [958, 0, 0]]
    }, 
    {
      "op": "where", 
      "name": "where520", 
      "inputs": [[36, 1111, 0], [105, 0, 0], [1007, 0, 0]]
    }, 
    {
      "op": "elemwise_mul", 
      "name": "_mul836", 
      "inputs": [[1004, 0, 0], [1008, 0, 0]]
    }, 
    {
      "op": "Activation", 
      "name": "lstm_l_1t18_i", 
      "attrs": {"act_type": "sigmoid"}, 
      "inputs": [[1002, 0, 0]]
    }, 
    {
      "op": "Activation", 
      "name": "lstm_l_1t18_c", 
      "attrs": {"act_type": "tanh"}, 
      "inputs": [[1002, 2, 0]]
    }, 
    {
      "op": "elemwise_mul", 
      "name": "_mul837", 
      "inputs": [[1010, 0, 0], [1011, 0, 0]]
    }, 
    {
      "op": "elemwise_add", 
      "name": "lstm_l_1t18_state", 
      "inputs": [[1009, 0, 0], [1012, 0, 0]]
    }, 
    {
      "op": "Activation", 
      "name": "activation221", 
      "attrs": {"act_type": "tanh"}, 
      "inputs": [[1013, 0, 0]]
    }, 
    {
      "op": "elemwise_mul", 
      "name": "lstm_l_1t18_out", 
      "inputs": [[1003, 0, 0], [1014, 0, 0]]
    }, 
    {
      "op": "elemwise_add", 
      "name": "lstm_l_1t18_out_plus_residual", 
      "inputs": [[1015, 0, 0], [994, 0, 0]]
    }, 
    {
      "op": "FullyConnected", 
      "name": "fullyconnected165", 
      "attrs": {"num_hidden": "1"}, 
      "inputs": [[1016, 0, 0], [115, 0, 0], [116, 0, 0]]
    }, 
    {
      "op": "elemwise_mul", 
      "name": "_mul844", 
      "inputs": [[1017, 0, 0], [30, 0, 0]]
    }, 
    {
      "op": "where", 
      "name": "where525", 
      "inputs": [[36, 1111, 0], [50, 0, 0], [1018, 0, 0]]
    }, 
    {
      "op": "where", 
      "name": "where526", 
      "inputs": [[15, 1111, 0], [10, 1111, 0], [1019, 0, 0]]
    }, 
    {
      "op": "Concat", 
      "name": "concat121", 
      "attrs": {
        "dim": "1", 
        "num_args": "30"
      }, 
      "inputs": [
        [1020, 0, 0], 
        [970, 0, 0], 
        [920, 0, 0], 
        [870, 0, 0], 
        [820, 0, 0], 
        [770, 0, 0], 
        [720, 0, 0], 
        [670, 0, 0], 
        [420, 0, 0], 
        [370, 0, 0], 
        [320, 0, 0], 
        [10, 1092, 0], 
        [10, 1091, 0], 
        [10, 1090, 0], 
        [10, 1085, 0], 
        [10, 1084, 0], 
        [10, 1083, 0], 
        [10, 1082, 0], 
        [10, 1081, 0], 
        [10, 1056, 0], 
        [10, 1028, 0], 
        [10, 749, 0], 
        [10, 748, 0], 
        [10, 747, 0], 
        [10, 385, 0], 
        [10, 384, 0], 
        [10, 383, 0], 
        [10, 21, 0], 
        [10, 20, 0], 
        [10, 19, 0]
      ]
    }, 
    {
      "op": "broadcast_div", 
      "name": "broadcast_div58", 
      "inputs": [[1021, 0, 0], [30, 0, 0]]
    }, 
    {
      "op": "Concat", 
      "name": "concat122", 
      "attrs": {
        "dim": "1", 
        "num_args": "3"
      }, 
      "inputs": [[39, 1112, 0], [32, 0, 0], [1022, 0, 0]]
    }, 
    {
      "op": "FullyConnected", 
      "name": "lstm_l_0t19_i2h", 
      "attrs": {"num_hidden": "160"}, 
      "inputs": [[1023, 0, 0], [72, 0, 0], [73, 0, 0]]
    }, 
    {
      "op": "ones_like", 
      "name": "ones_like224", 
      "inputs": [[994, 0, 0]]
    }, 
    {
      "op": "Dropout", 
      "name": "dropout220", 
      "attrs": {"p": "0.1"}, 
      "inputs": [[1025, 0, 0]]
    }, 
    {
      "op": "where", 
      "name": "where521", 
…
      "inputs": [[2002, 0, 0]]
    }, 
    {
      "op": "_plus_scalar", 
      "name": "_plusscalar308", 
      "attrs": {"scalar": "20.0"}, 
      "inputs": [[2003, 0, 0]]
    }, 
    {
      "op": "broadcast_lesser", 
      "name": "broadcast_lesser156", 
      "inputs": [[2002, 0, 0], [2004, 0, 0]]
    }, 
    {
      "op": "elemwise_mul", 
      "name": "_mul1182", 
      "inputs": [[2005, 0, 0], [2002, 0, 0]]
    }, 
    {
      "op": "Activation", 
      "name": "activation314", 
      "attrs": {"act_type": "softrelu"}, 
      "inputs": [[2006, 0, 0]]
    }, 
    {
      "op": "elemwise_mul", 
      "name": "_mul1183", 
      "inputs": [[2005, 0, 0], [2007, 0, 0]]
    }, 
    {
      "op": "broadcast_greater_equal", 
      "name": "broadcast_greater_equal156", 
      "inputs": [[2002, 0, 0], [2004, 0, 0]]
    }, 
    {
      "op": "elemwise_mul", 
      "name": "_mul1184", 
      "inputs": [[2009, 0, 0], [2002, 0, 0]]
    }, 
    {
      "op": "elemwise_add", 
      "name": "_plus314", 
      "inputs": [[2008, 0, 0], [2010, 0, 0]]
    }, 
    {
      "op": "elemwise_mul", 
      "name": "_mul1189", 
      "inputs": [[2011, 0, 0], [1602, 0, 0]]
    }, 
    {
      "op": "square", 
      "name": "square92", 
      "inputs": [[2012, 0, 0]]
    }, 
    {
      "op": "elemwise_mul", 
      "name": "_mul1190", 
      "inputs": [[2000, 0, 0], [2013, 0, 0]]
    }, 
    {
      "op": "_rdiv_scalar", 
      "name": "_rdivscalar110", 
      "attrs": {"scalar": "2.0"}, 
      "inputs": [[2014, 0, 0]]
    }, 
    {
      "op": "_sample_gamma", 
      "name": "sample_gamma18", 
      "inputs": [[2001, 0, 0], [2015, 0, 0]]
    }, 
    {
      "op": "sqrt", 
      "name": "sqrt18", 
      "inputs": [[2016, 0, 0]]
    }, 
    {
      "op": "_rdiv_scalar", 
      "name": "_rdivscalar111", 
      "attrs": {"scalar": "1.0"}, 
      "inputs": [[2017, 0, 0]]
    }, 
    {
      "op": "_sample_normal", 
      "name": "sample_normal18", 
      "inputs": [[1989, 0, 0], [2018, 0, 0]]
    }, 
    {
      "op": "repeat", 
      "name": "repeat1138", 
      "attrs": {
        "axis": "0", 
        "repeats": "100"
      }, 
      "inputs": [[1, 5, 0]]
    }, 
    {
      "op": "repeat", 
      "name": "repeat1139", 
      "attrs": {
        "axis": "0", 
        "repeats": "100"
      }, 
      "inputs": [[32, 0, 0]]
    }, 
    {
      "op": "repeat", 
      "name": "repeat1076", 
      "attrs": {
        "axis": "0", 
        "repeats": "100"
      }, 
      "inputs": [[10, 1072, 0]]
    }, 
    {
      "op": "repeat", 
      "name": "repeat1048", 
      "attrs": {
        "axis": "0", 
        "repeats": "100"
      }, 
      "inputs": [[10, 1044, 0]]
    }, 
    {
      "op": "repeat", 
      "name": "repeat769", 
      "attrs": {
        "axis": "0", 
        "repeats": "100"
      }, 
      "inputs": [[10, 765, 0]]
    }, 
    {
      "op": "repeat", 
      "name": "repeat405", 
      "attrs": {
        "axis": "0", 
        "repeats": "100"
      }, 
      "inputs": [[10, 401, 0]]
    }, 
    {
      "op": "repeat", 
      "name": "repeat41", 
      "attrs": {
        "axis": "0", 
        "repeats": "100"
      }, 
      "inputs": [[10, 37, 0]]
    }, 
    {
      "op": "Concat", 
      "name": "concat170", 
      "attrs": {
        "dim": "1", 
        "num_args": "30"
      }, 
      "inputs": [
        [2019, 0, 0], 
        [1935, 0, 0], 
        [1851, 0, 0], 
        [1767, 0, 0], 
        [1683, 0, 0], 
        [1571, 0, 0], 
        [1572, 0, 0], 
        [1573, 0, 0], 
        [1578, 0, 0], 
        [1938, 0, 0], 
        [1854, 0, 0], 
        [1581, 0, 0], 
        [1939, 0, 0], 
        [1855, 0, 0], 
        [1584, 0, 0], 
        [1940, 0, 0], 
        [1856, 0, 0], 
        [1772, 0, 0], 
        [1688, 0, 0], 
        [2022, 0, 0], 
        [2023, 0, 0], 
        [2024, 0, 0], 
        [1943, 0, 0], 
        [1859, 0, 0], 
        [2025, 0, 0], 
        [1944, 0, 0], 
        [1860, 0, 0], 
        [2026, 0, 0], 
        [1945, 0, 0], 
        [1861, 0, 0]
      ]
    }, 
    {
      "op": "broadcast_div", 
      "name": "broadcast_div81", 
      "inputs": [[2027, 0, 0], [1602, 0, 0]]
    }, 
    {
      "op": "Concat", 
      "name": "concat171", 
      "attrs": {
        "dim": "1", 
        "num_args": "3"
      }, 
      "inputs": [[2020, 0, 0], [2021, 0, 0], [2028, 0, 0]]
    }, 
    {
      "op": "FullyConnected", 
      "name": "lstm_l_0t42_i2h", 
      "attrs": {"num_hidden": "160"}, 
      "inputs": [[2029, 0, 0], [72, 0, 0], [73, 0, 0]]
    }, 
    {
      "op": "ones_like", 
      "name": "ones_like316", 
      "inputs": [[1967, 0, 0]]
    }, 
    {
      "op": "Dropout", 
      "name": "dropout312", 
      "attrs": {"p": "0.1"}, 
      "inputs": [[2031, 0, 0]]
    }, 
    {
      "op": "where", 
      "name": "where681", 
      "inputs": [[2032, 0, 0], [1967, 0, 0], [1952, 0, 0]]
    }, 
    {
      "op": "FullyConnected", 
      "name": "lstm_l_0t42_h2h", 
      "attrs": {"num_hidden": "160"}, 
      "inputs": [[2033, 0, 0], [77, 0, 0], [78, 0, 0]]
    }, 
    {
      "op": "elemwise_add", 
      "name": "_plus316", 
      "inputs": [[2030, 0, 0], [2034, 0, 0]]
    }, 
    {
      "op": "SliceChannel", 
      "name": "lstm_l_0t42_slice", 
      "attrs": {"num_outputs": "4"}, 
      "inputs": [[2035, 0, 0]]
    }, 
    {
      "op": "Activation", 
      "name": "lstm_l_0t42_o", 
      "attrs": {"act_type": "sigmoid"}, 
      "inputs": [[2036, 3, 0]]
    }, 
    {
      "op": "Activation", 
      "name": "lstm_l_0t42_f", 
      "attrs": {"act_type": "sigmoid"}, 
      "inputs": [[2036, 1, 0]]
    }, 
    {
      "op": "ones_like", 
      "name": "ones_like317", 
      "inputs": [[1965, 0, 0]]
    }, 
    {
      "op": "Dropout", 
      "name": "dropout313", 
      "attrs": {"p": "0.1"}, 
      "inputs": [[2039, 0, 0]]
    }, 
    {
      "op": "where", 
      "name": "where682", 
      "inputs": [[2040, 0, 0], [1965, 0, 0], [1960, 0, 0]]
    }, 
    {
      "op": "elemwise_mul", 
      "name": "_mul1191", 
      "inputs": [[2038, 0, 0], [2041, 0, 0]]
    }, 
    {
      "op": "Activation", 
      "name": "lstm_l_0t42_i", 
      "attrs": {"act_type": "sigmoid"}, 
      "inputs": [[2036, 0, 0]]
    }, 
    {
      "op": "Activation", 
      "name": "lstm_l_0t42_c", 
      "attrs": {"act_type": "tanh"}, 
      "inputs": [[2036, 2, 0]]
    }, 
    {
      "op": "elemwise_mul", 
      "name": "_mul1192", 
      "inputs": [[2043, 0, 0], [2044, 0, 0]]
    }, 
    {
      "op": "elemwise_add", 
      "name": "lstm_l_0t42_state", 
      "inputs": [[2042, 0, 0], [2045, 0, 0]]
    }, 
    {
      "op": "Activation", 
      "name": "activation316", 
      "attrs": {"act_type": "tanh"}, 
      "inputs": [[2046, 0, 0]]
    }, 
    {
      "op": "elemwise_mul", 
      "name": "lstm_l_0t42_out", 
      "inputs": [[2037, 0, 0], [2047, 0, 0]]
    }, 
    {
      "op": "FullyConnected", 
      "name": "lstm_l_1t42_i2h", 
      "attrs": {"num_hidden": "160"}, 
      "inputs": [[2048, 0, 0], [93, 0, 0], [94, 0, 0]]
    }, 
    {
      "op": "ones_like", 
      "name": "ones_like318", 
      "inputs": [[1986, 0, 0]]
    }, 
    {
      "op": "Dropout", 
      "name": "dropout314", 
      "attrs": {"p": "0.1"}, 
      "inputs": [[2050, 0, 0]]
    }, 
    {
      "op": "where", 
      "name": "where683", 
      "inputs": [[2051, 0, 0], [1986, 0, 0], [1971, 0, 0]]
    }, 
    {
      "op": "FullyConnected", 
      "name": "lstm_l_1t42_h2h", 
      "attrs": {"num_hidden": "160"}, 
      "inputs": [[2052, 0, 0], [98, 0, 0], [99, 0, 0]]
    }, 
    {
      "op": "elemwise_add", 
      "name": "_plus317", 
      "inputs": [[2049, 0, 0], [2053, 0, 0]]
    }, 
    {
      "op": "SliceChannel", 
      "name": "lstm_l_1t42_slice", 
      "attrs": {"num_outputs": "4"}, 
      "inputs": [[2054, 0, 0]]
    }, 
    {
      "op": "Activation", 
      "name": "lstm_l_1t42_o", 
      "attrs": {"act_type": "sigmoid"}, 
      "inputs": [[2055, 3, 0]]
    }, 
    {
      "op": "Activation", 
      "name": "lstm_l_1t42_f", 
      "attrs": {"act_type": "sigmoid"}, 
      "inputs": [[2055, 1, 0]]
    }, 
    {
      "op": "ones_like", 
      "name": "ones_like319", 
      "inputs": [[1984, 0, 0]]
    }, 
    {
      "op": "Dropout", 
      "name": "dropout315", 
      "attrs": {"p": "0.1"}, 
      "inputs": [[2058, 0, 0]]
    }, 
    {
      "op": "where", 
      "name": "where684", 
      "inputs": [[2059, 0, 0], [1984, 0, 0], [1979, 0, 0]]
    }, 
    {
      "op": "elemwise_mul", 
      "name": "_mul1193", 
      "inputs": [[2057, 0, 0], [2060, 0, 0]]
    }, 
    {
      "op": "Activation", 
      "name": "lstm_l_1t42_i", 
      "attrs": {"act_type": "sigmoid"}, 
      "inputs": [[2055, 0, 0]]
    }, 
    {
      "op": "Activation", 
      "name": "lstm_l_1t42_c", 
      "attrs": {"act_type": "tanh"}, 
      "inputs": [[2055, 2, 0]]
    }, 
    {
      "op": "elemwise_mul", 
      "name": "_mul1194", 
      "inputs": [[2062, 0, 0], [2063, 0, 0]]
    }, 
    {
      "op": "elemwise_add", 
      "name": "lstm_l_1t42_state", 
      "inputs": [[2061, 0, 0], [2064, 0, 0]]
    }, 
    {
      "op": "Activation", 
      "name": "activation317", 
      "attrs": {"act_type": "tanh"}, 
      "inputs": [[2065, 0, 0]]
    }, 
    {
      "op": "elemwise_mul", 
      "name": "lstm_l_1t42_out", 
      "inputs": [[2056, 0, 0], [2066, 0, 0]]
    }, 
    {
      "op": "elemwise_add", 
      "name": "lstm_l_1t42_out_plus_residual", 
      "inputs": [[2067, 0, 0], [2048, 0, 0]]
    }, 
    {
      "op": "FullyConnected", 
      "name": "fullyconnected237", 
      "attrs": {"num_hidden": "1"}, 
      "inputs": [[2068, 0, 0], [115, 0, 0], [116, 0, 0]]
    }, 
    {
      "op": "elemwise_mul", 
      "name": "_mul1201", 
      "inputs": [[2069, 0, 0], [1602, 0, 0]]
    }, 
    {
      "op": "FullyConnected", 
      "name": "fullyconnected239", 
      "attrs": {"num_hidden": "1"}, 
      "inputs": [[2068, 0, 0], [1650, 0, 0], [1651, 0, 0]]
    }, 
    {
      "op": "zeros_like", 
      "name": "zeros_like221", 
      "inputs": [[2071, 0, 0]]
    }, 
    {
      "op": "_plus_scalar", 
      "name": "_plusscalar312", 
      "attrs": {"scalar": "20.0"}, 
      "inputs": [[2072, 0, 0]]
    }, 
    {
      "op": "broadcast_lesser", 
      "name": "broadcast_lesser159", 
      "inputs": [[2071, 0, 0], [2073, 0, 0]]
    }, 
    {
      "op": "elemwise_mul", 
      "name": "_mul1198", 
      "inputs": [[2074, 0, 0], [2071, 0, 0]]
    }, 
    {
      "op": "Activation", 
      "name": "activation319", 
      "attrs": {"act_type": "softrelu"}, 
      "inputs": [[2075, 0, 0]]
    }, 
    {
      "op": "elemwise_mul", 
      "name": "_mul1199", 
      "inputs": [[2074, 0, 0], [2076, 0, 0]]
    }, 
    {
      "op": "broadcast_greater_equal", 
      "name": "broadcast_greater_equal159", 
      "inputs": [[2071, 0, 0], [2073, 0, 0]]
    }, 
    {
      "op": "elemwise_mul", 
      "name": "_mul1200", 
      "inputs": [[2078, 0, 0], [2071, 0, 0]]
    }, 
    {
      "op": "elemwise_add", 
      "name": "_plus319", 
      "inputs": [[2077, 0, 0], [2079, 0, 0]]
    }, 
    {
      "op": "_plus_scalar", 
      "name": "_plusscalar313", 
      "attrs": {"scalar": "2.0"}, 
      "inputs": [[2080, 0, 0]]
    }, 
    {
      "op": "_div_scalar", 
      "name": "_divscalar171", 
      "attrs": {"scalar": "2.0"}, 
      "inputs": [[2081, 0, 0]]
    }, 
    {
      "op": "FullyConnected", 
      "name": "fullyconnected238", 
      "attrs": {"num_hidden": "1"}, 
      "inputs": [[2068, 0, 0], [1664, 0, 0], [1665, 0, 0]]
    }, 
    {
      "op": "zeros_like", 
      "name": "zeros_like220", 
      "inputs": [[2083, 0, 0]]
    }, 
    {
      "op": "_plus_scalar", 
      "name": "_plusscalar311", 
      "attrs": {"scalar": "20.0"}, 
      "inputs": [[2084, 0, 0]]
    }, 
    {
      "op": "broadcast_lesser", 
      "name": "broadcast_lesser158", 
      "inputs": [[2083, 0, 0], [2085, 0, 0]]
    }, 
    {
      "op": "elemwise_mul", 
      "name": "_mul1195", 
      "inputs": [[2086, 0, 0], [2083, 0, 0]]
    }, 
    {
      "op": "Activation", 
      "name": "activation318", 
      "attrs": {"act_type": "softrelu"}, 
      "inputs": [[2087, 0, 0]]
    }, 
    {
      "op": "elemwise_mul", 
      "name": "_mul1196", 
      "inputs": [[2086, 0, 0], [2088, 0, 0]]
    }, 
    {
      "op": "broadcast_greater_equal", 
      "name": "broadcast_greater_equal158", 
      "inputs": [[2083, 0, 0], [2085, 0, 0]]
    }, 
    {
      "op": "elemwise_mul", 
      "name": "_mul1197", 
      "inputs": [[2090, 0, 0], [2083, 0, 0]]
    }, 
    {
      "op": "elemwise_add", 
      "name": "_plus318", 
      "inputs": [[2089, 0, 0], [2091, 0, 0]]
    }, 
    {
      "op": "elemwise_mul", 
      "name": "_mul1202", 
      "inputs": [[2092, 0, 0], [1602, 0, 0]]
    }, 
    {
      "op": "square", 
      "name": "square93", 
      "inputs": [[2093, 0, 0]]
    }, 
    {
      "op": "elemwise_mul", 
      "name": "_mul1203", 
      "inputs": [[2081, 0, 0], [2094, 0, 0]]
    }, 
    {
      "op": "_rdiv_scalar", 
      "name": "_rdivscalar112", 
      "attrs": {"scalar": "2.0"}, 
      "inputs": [[2095, 0, 0]]
    }, 
    {
      "op": "_sample_gamma", 
      "name": "sample_gamma19", 
      "inputs": [[2082, 0, 0], [2096, 0, 0]]
    }, 
    {
      "op": "sqrt", 
      "name": "sqrt19", 
      "inputs": [[2097, 0, 0]]
    }, 
    {
      "op": "_rdiv_scalar", 
      "name": "_rdivscalar113", 
      "attrs": {"scalar": "1.0"}, 
      "inputs": [[2098, 0, 0]]
    }, 
    {
      "op": "_sample_normal", 
      "name": "sample_normal19", 
      "inputs": [[2070, 0, 0], [2099, 0, 0]]
    }, 
    {
      "op": "repeat", 
      "name": "repeat1140", 
      "attrs": {
        "axis": "0", 
        "repeats": "100"
      }, 
      "inputs": [[1, 6, 0]]
    }, 
    {
      "op": "repeat", 
      "name": "repeat1141", 
      "attrs": {
        "axis": "0", 
        "repeats": "100"
      }, 
      "inputs": [[32, 0, 0]]
    }, 
    {
      "op": "repeat", 
      "name": "repeat1077", 
      "attrs": {
        "axis": "0", 
        "repeats": "100"
      }, 
      "inputs": [[10, 1073, 0]]
    }, 
    {
      "op": "repeat", 
      "name": "repeat1049", 
      "attrs": {
        "axis": "0", 
        "repeats": "100"
      }, 
      "inputs": [[10, 1045, 0]]
    }, 
    {
      "op": "repeat", 
      "name": "repeat770", 
      "attrs": {
        "axis": "0", 
        "repeats": "100"
      }, 
      "inputs": [[10, 766, 0]]
    }, 
    {
      "op": "repeat", 
      "name": "repeat406", 
      "attrs": {
        "axis": "0", 
        "repeats": "100"
      }, 
      "inputs": [[10, 402, 0]]
    }, 
    {
      "op": "repeat", 
      "name": "repeat42", 
      "attrs": {
        "axis": "0", 
        "repeats": "100"
      }, 
      "inputs": [[10, 38, 0]]
    }, 
    {
      "op": "Concat", 
      "name": "concat172", 
      "attrs": {
        "dim": "1", 
        "num_args": "30"
      }, 
      "inputs": [
        [2100, 0, 0], 
        [2019, 0, 0], 
        [1935, 0, 0], 
        [1851, 0, 0], 
        [1767, 0, 0], 
        [1683, 0, 0], 
        [1571, 0, 0], 
        [1572, 0, 0], 
        [1577, 0, 0], 
        [1578, 0, 0], 
        [1938, 0, 0], 
        [1580, 0, 0], 
        [1581, 0, 0], 
        [1939, 0, 0], 
        [1583, 0, 0], 
        [1584, 0, 0], 
        [1940, 0, 0], 
        [1856, 0, 0], 
        [1772, 0, 0], 
        [2103, 0, 0], 
        [2104, 0, 0], 
        [2105, 0, 0], 
        [2024, 0, 0], 
        [1943, 0, 0], 
        [2106, 0, 0], 
        [2025, 0, 0], 
        [1944, 0, 0], 
        [2107, 0, 0], 
        [2026, 0, 0], 
        [1945, 0, 0]
      ]
    }, 
    {
      "op": "broadcast_div", 
      "name": "broadcast_div82", 
      "inputs": [[2108, 0, 0], [1602, 0, 0]]
    }, 
    {
      "op": "Concat", 
      "name": "concat173", 
      "attrs": {
        "dim": "1", 
        "num_args": "3"
      }, 
      "inputs": [[2101, 0, 0], [2102, 0, 0], [2109, 0, 0]]
    }, 
    {
      "op": "FullyConnected", 
      "name": "lstm_l_0t43_i2h", 
      "attrs": {"num_hidden": "160"}, 
      "inputs": [[2110, 0, 0], [72, 0, 0], [73, 0, 0]]
    }, 
    {
      "op": "ones_like", 
      "name": "ones_like320", 
      "inputs": [[2048, 0, 0]]
    }, 
    {
      "op": "Dropout", 
      "name": "dropout316", 
      "attrs": {"p": "0.1"}, 
      "inputs": [[2112, 0, 0]]
    }, 
    {
      "op": "where", 
      "name": "where685", 
      "inputs": [[2113, 0, 0], [2048, 0, 0], [2033, 0, 0]]
    }, 
    {
      "op": "FullyConnected", 
      "name": "lstm_l_0t43_h2h", 
      "attrs": {"num_hidden": "160"}, 
      "inputs": [[2114, 0, 0], [77, 0, 0], [78, 0, 0]]
    }, 
    {
      "op": "elemwise_add", 
      "name": "_plus320", 
      "inputs": [[2111, 0, 0], [2115, 0, 0]]
    }, 
    {
      "op": "SliceChannel", 
      "name": "lstm_l_0t43_slice", 
      "attrs": {"num_outputs": "4"}, 
      "inputs": [[2116, 0, 0]]
    }, 
    {
      "op": "Activation", 
      "name": "lstm_l_0t43_o", 
      "attrs": {"act_type": "sigmoid"}, 
      "inputs": [[2117, 3, 0]]
    }, 
    {
      "op": "Activation", 
      "name": "lstm_l_0t43_f", 
      "attrs": {"act_type": "sigmoid"}, 
      "inputs": [[2117, 1, 0]]
    }, 
    {
      "op": "ones_like", 
      "name": "ones_like321", 
      "inputs": [[2046, 0, 0]]
    }, 
    {
      "op": "Dropout", 
      "name": "dropout317", 
      "attrs": {"p": "0.1"}, 
      "inputs": [[2120, 0, 0]]
    }, 
    {
      "op": "where", 
      "name": "where686", 
      "inputs": [[2121, 0, 0], [2046, 0, 0], [2041, 0, 0]]
    }, 
    {
      "op": "elemwise_mul", 
      "name": "_mul1204", 
      "inputs": [[2119, 0, 0], [2122, 0, 0]]
    }, 
    {
      "op": "Activation", 
      "name": "lstm_l_0t43_i", 
      "attrs": {"act_type": "sigmoid"}, 
      "inputs": [[2117, 0, 0]]
    }, 
    {
      "op": "Activation", 
      "name": "lstm_l_0t43_c", 
      "attrs": {"act_type": "tanh"}, 
      "inputs": [[2117, 2, 0]]
    }, 
    {
      "op": "elemwise_mul", 
      "name": "_mul1205", 
      "inputs": [[2124, 0, 0], [2125, 0, 0]]
    }, 
    {
      "op": "elemwise_add", 
      "name": "lstm_l_0t43_state", 
      "inputs": [[2123, 0, 0], [2126, 0, 0]]
    }, 
    {
      "op": "Activation", 
      "name": "activation320", 
      "attrs": {"act_type": "tanh"}, 
      "inputs": [[2127, 0, 0]]
    }, 
    {
      "op": "elemwise_mul", 
      "name": "lstm_l_0t43_out", 
      "inputs": [[2118, 0, 0], [2128, 0, 0]]
    }, 
    {
      "op": "FullyConnected", 
      "name": "lstm_l_1t43_i2h", 
      "attrs": {"num_hidden": "160"}, 
      "inputs": [[2129, 0, 0], [93, 0, 0], [94, 0, 0]]
    }, 
    {
      "op": "ones_like", 
      "name": "ones_like322", 
      "inputs": [[2067, 0, 0]]
    }, 
    {
      "op": "Dropout", 
      "name": "dropout318", 
      "attrs": {"p": "0.1"}, 
      "inputs": [[2131, 0, 0]]
    }, 
    {
      "op": "where", 
      "name": "where687", 
      "inputs": [[2132, 0, 0], [2067, 0, 0], [2052, 0, 0]]
    }, 
    {
      "op": "FullyConnected", 
      "name": "lstm_l_1t43_h2h", 
      "attrs": {"num_hidden": "160"}, 
      "inputs": [[2133, 0, 0], [98, 0, 0], [99, 0, 0]]
    }, 
    {
      "op": "elemwise_add", 
      "name": "_plus321", 
      "inputs": [[2130, 0, 0], [2134, 0, 0]]
    }, 
    {
      "op": "SliceChannel", 
      "name": "lstm_l_1t43_slice", 
      "attrs": {"num_outputs": "4"}, 
      "inputs": [[2135, 0, 0]]
    }, 
    {
      "op": "Activation", 
      "name": "lstm_l_1t43_o", 
      "attrs": {"act_type": "sigmoid"}, 
      "inputs": [[2136, 3, 0]]
    }, 
    {
      "op": "Activation", 
      "name": "lstm_l_1t43_f", 
      "attrs": {"act_type": "sigmoid"}, 
      "inputs": [[2136, 1, 0]]
    }, 
    {
      "op": "ones_like", 
      "name": "ones_like323", 
      "inputs": [[2065, 0, 0]]
    }, 
    {
      "op": "Dropout", 
      "name": "dropout319", 
      "attrs": {"p": "0.1"}, 
      "inputs": [[2139, 0, 0]]
    }, 
    {
      "op": "where", 
      "name": "where688", 
      "inputs": [[2140, 0, 0], [2065, 0, 0], [2060, 0, 0]]
    }, 
    {
      "op": "elemwise_mul", 
      "name": "_mul1206", 
      "inputs": [[2138, 0, 0], [2141, 0, 0]]
    }, 
    {
      "op": "Activation", 
      "name": "lstm_l_1t43_i", 
      "attrs": {"act_type": "sigmoid"}, 
      "inputs": [[2136, 0, 0]]
    }, 
    {
      "op": "Activation", 
      "name": "lstm_l_1t43_c", 
      "attrs": {"act_type": "tanh"}, 
      "inputs": [[2136, 2, 0]]
    }, 
    {
      "op": "elemwise_mul", 
      "name": "_mul1207", 
      "inputs": [[2143, 0, 0], [2144, 0, 0]]
    }, 
    {
      "op": "elemwise_add", 
      "name": "lstm_l_1t43_state", 
      "inputs": [[2142, 0, 0], [2145, 0, 0]]
    }, 
    {
      "op": "Activation", 
      "name": "activation321", 
      "attrs": {"act_type": "tanh"}, 
      "inputs": [[2146, 0, 0]]
    }, 
    {
      "op": "elemwise_mul", 
      "name": "lstm_l_1t43_out", 
      "inputs": [[2137, 0, 0], [2147, 0, 0]]
    }, 
    {
      "op": "elemwise_add", 
      "name": "lstm_l_1t43_out_plus_residual", 
      "inputs": [[2148, 0, 0], [2129, 0, 0]]
    }, 
    {
      "op": "FullyConnected", 
      "name": "fullyconnected240", 
      "attrs": {"num_hidden": "1"}, 
      "inputs": [[2149, 0, 0], [115, 0, 0], [116, 0, 0]]
    }, 
    {
      "op": "elemwise_mul", 
      "name": "_mul1214", 
      "inputs": [[2150, 0, 0], [1602, 0, 0]]
    }, 
    {
      "op": "FullyConnected", 
      "name": "fullyconnected242", 
      "attrs": {"num_hidden": "1"}, 
      "inputs": [[2149, 0, 0], [1650, 0, 0], [1651, 0, 0]]
    }, 
    {
      "op": "zeros_like", 
      "name": "zeros_like223", 
      "inputs": [[2152, 0, 0]]
    }, 
    {
      "op": "_plus_scalar", 
      "name": "_plusscalar315", 
      "attrs": {"scalar": "20.0"}, 
      "inputs": [[2153, 0, 0]]
    }, 
    {
      "op": "broadcast_lesser", 
      "name": "broadcast_lesser161", 
      "inputs": [[2152, 0, 0], [2154, 0, 0]]
    }, 
    {
      "op": "elemwise_mul", 
      "name": "_mul1211", 
      "inputs": [[2155, 0, 0], [2152, 0, 0]]
    }, 
    {
      "op": "Activation", 
      "name": "activation323", 
      "attrs": {"act_type": "softrelu"}, 
      "inputs": [[2156, 0, 0]]
    }, 
    {
      "op": "elemwise_mul", 
      "name": "_mul1212", 
      "inputs": [[2155, 0, 0], [2157, 0, 0]]
    }, 
    {
      "op": "broadcast_greater_equal", 
      "name": "broadcast_greater_equal161", 
      "inputs": [[2152, 0, 0], [2154, 0, 0]]
    }, 
    {
      "op": "elemwise_mul", 
      "name": "_mul1213", 
      "inputs": [[2159, 0, 0], [2152, 0, 0]]
    }, 
    {
      "op": "elemwise_add", 
      "name": "_plus323", 
      "inputs": [[2158, 0, 0], [2160, 0, 0]]
    }, 
    {
      "op": "_plus_scalar", 
      "name": "_plusscalar316", 
      "attrs": {"scalar": "2.0"}, 
      "inputs": [[2161, 0, 0]]
    }, 
    {
      "op": "_div_scalar", 
      "name": "_divscalar172", 
      "attrs": {"scalar": "2.0"}, 
      "inputs": [[2162, 0, 0]]
    }, 
    {
      "op": "FullyConnected", 
      "name": "fullyconnected241", 
      "attrs": {"num_hidden": "1"}, 
      "inputs": [[2149, 0, 0], [1664, 0, 0], [1665, 0, 0]]
    }, 
    {
      "op": "zeros_like", 
      "name": "zeros_like222", 
      "inputs": [[2164, 0, 0]]
    }, 
    {
      "op": "_plus_scalar", 
      "name": "_plusscalar314", 
      "attrs": {"scalar": "20.0"}, 
      "inputs": [[2165, 0, 0]]
    }, 
    {
      "op": "broadcast_lesser", 
      "name": "broadcast_lesser160", 
      "inputs": [[2164, 0, 0], [2166, 0, 0]]
    }, 
    {
      "op": "elemwise_mul", 
      "name": "_mul1208", 
      "inputs": [[2167, 0, 0], [2164, 0, 0]]
    }, 
    {
      "op": "Activation", 
      "name": "activation322", 
      "attrs": {"act_type": "softrelu"}, 
      "inputs": [[2168, 0, 0]]
    }, 
    {
      "op": "elemwise_mul", 
      "name": "_mul1209", 
      "inputs": [[2167, 0, 0], [2169, 0, 0]]
    }, 
    {
      "op": "broadcast_greater_equal", 
      "name": "broadcast_greater_equal160", 
      "inputs": [[2164, 0, 0], [2166, 0, 0]]
    }, 
    {
      "op": "elemwise_mul", 
      "name": "_mul1210", 
      "inputs": [[2171, 0, 0], [2164, 0, 0]]
    }, 
    {
      "op": "elemwise_add", 
      "name": "_plus322", 
      "inputs": [[2170, 0, 0], [2172, 0, 0]]
    }, 
    {
      "op": "elemwise_mul", 
      "name": "_mul1215", 
      "inputs": [[2173, 0, 0], [1602, 0, 0]]
    }, 
    {
      "op": "square", 
      "name": "square94", 
      "inputs": [[2174, 0, 0]]
    }, 
    {
      "op": "elemwise_mul", 
      "name": "_mul1216", 
      "inputs": [[2162, 0, 0], [2175, 0, 0]]
    }, 
    {
      "op": "_rdiv_scalar", 
      "name": "_rdivscalar114", 
      "attrs": {"scalar": "2.0"}, 
      "inputs": [[2176, 0, 0]]
    }, 
    {
      "op": "_sample_gamma", 
      "name": "sample_gamma20", 
      "inputs": [[2163, 0, 0], [2177, 0, 0]]
    }, 
    {
      "op": "sqrt", 
      "name": "sqrt20", 
      "inputs": [[2178, 0, 0]]
    }, 
    {
      "op": "_rdiv_scalar", 
      "name": "_rdivscalar115", 
      "attrs": {"scalar": "1.0"}, 
      "inputs": [[2179, 0, 0]]
    }, 
    {
      "op": "_sample_normal", 
      "name": "sample_normal20", 
      "inputs": [[2151, 0, 0], [2180, 0, 0]]
    }, 
    {
      "op": "Concat", 
      "name": "concat174", 
      "attrs": {
        "dim": "1", 
        "num_args": "7"
      }, 
      "inputs": [[1683, 0, 0], [1767, 0, 0], [1851, 0, 0], [1935, 0, 0], [2019, 0, 0], [2100, 0, 0], [2181, 0, 0]]
    }, 
    {
      "op": "Reshape", 
      "name": "reshape2", 
      "attrs": {"shape": "(-1, 100, 7)"}, 
      "inputs": [[2182, 0, 0]]
    }
  ], 
  "arg_nodes": [
    0, 
    3, 
    5, 
    8, 
    13, 
    34, 
    38, 
    72, 
    73, 
    77, 
    78, 
    93, 
    94, 
    98, 
    99, 
    115, 
    116, 
    1650, 
    1651, 
    1664, 
    1665
  ], 
  "node_row_ptr": [
    0, 
    1, 
    8, 
    9, 
    10, 
    11, 
    12, 
    13, 
    14, 
    15, 
    16, 
    1139, 
    1140, 
    1141, 
    1142, 
    1143, 
    2266, 
    2267, 
    2268, 
    2269, 
    2270, 
    2271, 
    2272, 
    2273, 
    2274, 
    2275, 
    2276, 
    2277, 
    2278, 
    2279, 
    2280, 
    2281, 
    2282, 
    2283, 
    2284, 
    2285, 
    2286, 
    3409, 
    3410, 
    3411, 
    4534, 
    4535, 
    4536, 
    4537, 
    4538, 
    4539, 
    4540, 
    4541, 
    4542, 
    4543, 
    4544, 
    4545, 
    4546, 
    4547, 
    4548, 
    4549, 
    4550, 
    4551, 
    4552, 
    4553, 
    4554, 
    4555, 
    4556, 
    4557, 
    4558, 
    4559, 
    4560, 
    4561, 
    4562, 
    4563, 
    4564, 
    4565, 
    4566, 
    4567, 
    4568, 
    4569, 
    4570, 
    4571, 
    4572, 
    4573, 
    4574, 
    4575, 
    4579, 
    4580, 
    4581, 
    4582, 
    4583, 
    4584, 
    4585, 
    4586, 
    4587, 
    4588, 
    4589, 
    4590, 
    4591, 
    4592, 
    4593, 
    4594, 
    4595, 
    4596, 
    4597, 
    4598, 
    4599, 
    4603, 
    4604, 
    4605, 
    4606, 
    4607, 
    4608, 
    4609, 
    4610, 
    4611, 
    4612, 
    4613, 
    4614, 
    4615, 
    4616, 
    4617, 
    4618, 
    4619, 
    4620, 
    4621, 
    4622, 
    4623, 
    4624, 
    4625, 
    4626, 
    4628, 
    4629, 
    4630, 
    4631, 
    4632, 
    4636, 
    4637, 
    4638, 
    4639, 
    4641, 
    4642, 
    4643, 
    4644, 
    4645, 
    4646, 
    4647, 
    4648, 
    4649, 
    4650, 
    4651, 
    4652, 
    4654, 
    4655, 
    4656, 
    4657, 
    4658, 
    4662, 
    4663, 
    4664, 
    4665, 
    4667, 
    4668, 
    4669, 
    4670, 
    4671, 
    4672, 
    4673, 
    4674, 
    4675, 
    4676, 
    4677, 
    4678, 
    4679, 
    4680, 
    4681, 
    4682, 
    4683, 
    4684, 
    4685, 
    4686, 
    4688, 
    4689, 
    4690, 
    4691, 
    4692, 
    4696, 
    4697, 
    4698, 
    4699, 
    4701, 
    4702, 
    4703, 
    4704, 
    4705, 
    4706, 
    4707, 
    4708, 
    4709, 
    4710, 
    4711, 
    4712, 
    4714, 
    4715, 
    4716, 
    4717, 
    4718, 
    4722, 
    4723, 
    4724, 
    4725, 
    4727, 
    4728, 
    4729, 
    4730, 
    4731, 
    4732, 
    4733, 
    4734, 
    4735, 
    4736, 
    4737, 
    4738, 
    4739, 
    4740, 
    4741, 
    4742, 
    4743, 
    4744, 
    4745, 
    4746, 
    4748, 
    4749, 
    4750, 
    4751, 
    4752, 
    4756, 
    4757, 
    4758, 
    4759, 
    4761, 
    4762, 
    4763, 
    4764, 
    4765, 
    4766, 
    4767, 
    4768, 
    4769, 
    4770, 
    4771, 
    4772, 
    4774, 
    4775, 
    4776, 
    4777, 
    4778, 
    4782, 
    4783, 
    4784, 
    4785, 
    4787, 
    4788, 
    4789, 
    4790, 
    4791, 
    4792, 
    4793, 
    4794, 
    4795, 
    4796, 
    4797, 
    4798, 
    4799, 
    4800, 
    4801, 
    4802, 
    4803, 
    4804, 
    4805, 
    4806, 
    4808, 
    4809, 
    4810, 
    4811, 
    4812, 
    4816, 
    4817, 
    4818, 
    4819, 
    4821, 
    4822, 
    4823, 
    4824, 
    4825, 
    4826, 
    4827, 
    4828, 
    4829, 
    4830, 
    4831, 
    4832, 
    4834, 
    4835, 
    4836, 
    4837, 
    4838, 
    4842, 
    4843, 
    4844, 
    4845, 
    4847, 
    4848, 
    4849, 
    4850, 
    4851, 
    4852, 
    4853, 
    4854, 
    4855, 
    4856, 
    4857, 
    4858, 
    4859, 
    4860, 
    4861, 
    4862, 
    4863, 
    4864, 
    4865, 
    4866, 
    4868, 
    4869, 
    4870, 
    4871, 
    4872, 
    4876, 
    4877, 
    4878, 
    4879, 
    4881, 
    4882, 
    4883, 
    4884, 
    4885, 
    4886, 
    4887, 
    4888, 
    4889, 
    4890, 
    4891, 
    4892, 
    4894, 
    4895, 
    4896, 
    4897, 
    4898, 
    4902, 
    4903, 
    4904, 
    4905, 
    4907, 
    4908, 
    4909, 
    4910, 
    4911, 
    4912, 
    4913, 
    4914, 
    4915, 
    4916, 
    4917, 
    4918, 
    4919, 
    4920, 
    4921, 
    4922, 
    4923, 
    4924, 
    4925, 
    4926, 
    4928, 
    4929, 
    4930, 
    4931, 
    4932, 
    4936, 
    4937, 
    4938, 
    4939, 
    4941, 
    4942, 
    4943, 
    4944, 
    4945, 
    4946, 
    4947, 
    4948, 
    4949, 
    4950, 
    4951, 
    4952, 
    4954, 
    4955, 
    4956, 
    4957, 
    4958, 
    4962, 
    4963, 
    4964, 
    4965, 
    4967, 
    4968, 
    4969, 
    4970, 
    4971, 
    4972, 
    4973, 
    4974, 
    4975, 
    4976, 
    4977, 
    4978, 
    4979, 
    4980, 
    4981, 
    4982, 
    4983, 
    4984, 
    4985, 
    4986, 
    4988, 
    4989, 
    4990, 
    4991, 
    4992, 
    4996, 
    4997, 
    4998, 
    4999, 
    5001, 
    5002, 
    5003, 
    5004, 
    5005, 
    5006, 
    5007, 
    5008, 
    5009, 
    5010, 
    5011, 
    5012, 
    5014, 
    5015, 
    5016, 
    5017, 
    5018, 
    5022, 
    5023, 
    5024, 
    5025, 
    5027, 
    5028, 
    5029, 
    5030, 
    5031, 
    5032, 
    5033, 
    5034, 
    5035, 
    5036, 
    5037, 
    5038, 
    5039, 
    5040, 
    5041, 
    5042, 
    5043, 
    5044, 
    5045, 
    5046, 
    5048, 
    5049, 
    5050, 
    5051, 
    5052, 
    5056, 
    5057, 
    5058, 
    5059, 
    5061, 
    5062, 
    5063, 
    5064, 
    5065, 
    5066, 
    5067, 
    5068, 
    5069, 
    5070, 
    5071, 
    5072, 
    5074, 
    5075, 
    5076, 
    5077, 
    5078, 
    5082, 
    5083, 
    5084, 
    5085, 
    5087, 
    5088, 
    5089, 
    5090, 
    5091, 
    5092, 
    5093, 
    5094, 
    5095, 
    5096, 
    5097, 
    5098, 
    5099, 
    5100, 
    5101, 
    5102, 
    5103, 
    5104, 
    5105, 
    5106, 
    5108, 
    5109, 
    5110, 
    5111, 
    5112, 
    5116, 
    5117, 
    5118, 
    5119, 
    5121, 
    5122, 
    5123, 
    5124, 
    5125, 
    5126, 
    5127, 
    5128, 
    5129, 
    5130, 
    5131, 
    5132, 
    5134, 
    5135, 
    5136, 
    5137, 
    5138, 
    5142, 
    5143, 
    5144, 
    5145, 
    5147, 
    5148, 
    5149, 
    5150, 
    5151, 
    5152, 
    5153, 
    5154, 
    5155, 
    5156, 
    5157, 
    5158, 
    5159, 
    5160, 
    5161, 
    5162, 
    5163, 
    5164, 
    5165, 
    5166, 
    5168, 
    5169, 
    5170, 
    5171, 
    5172, 
    5176, 
    5177, 
    5178, 
    5179, 
    5181, 
    5182, 
    5183, 
    5184, 
    5185, 
    5186, 
    5187, 
    5188, 
    5189, 
    5190, 
    5191, 
    5192, 
    5194, 
    5195, 
    5196, 
    5197, 
    5198, 
    5202, 
    5203, 
    5204, 
    5205, 
    5207, 
    5208, 
    5209, 
    5210, 
    5211, 
    5212, 
    5213, 
    5214, 
    5215, 
    5216, 
    5217, 
    5218, 
    5219, 
    5220, 
    5221, 
    5222, 
    5223, 
    5224, 
    5225, 
    5226, 
    5228, 
    5229, 
    5230, 
    5231, 
    5232, 
    5236, 
    5237, 
    5238, 
    5239, 
    5241, 
    5242, 
    5243, 
    5244, 
    5245, 
    5246, 
    5247, 
    5248, 
    5249, 
    5250, 
    5251, 
    5252, 
    5254, 
    5255, 
    5256, 
    5257, 
    5258, 
    5262, 
    5263, 
    5264, 
    5265, 
    5267, 
    5268, 
    5269, 
    5270, 
    5271, 
    5272, 
    5273, 
    5274, 
    5275, 
    5276, 
    5277, 
    5278, 
    5279, 
    5280, 
    5281, 
    5282, 
    5283, 
    5284, 
    5285, 
    5286, 
    5288, 
    5289, 
    5290, 
    5291, 
    5292, 
    5296, 
    5297, 
    5298, 
    5299, 
    5301, 
    5302, 
    5303, 
    5304, 
    5305, 
    5306, 
    5307, 
    5308, 
    5309, 
    5310, 
    5311, 
    5312, 
    5314, 
    5315, 
    5316, 
    5317, 
    5318, 
    5322, 
    5323, 
    5324, 
    5325, 
    5327, 
    5328, 
    5329, 
    5330, 
    5331, 
    5332, 
    5333, 
    5334, 
    5335, 
    5336, 
    5337, 
    5338, 
    5339, 
    5340, 
    5341, 
    5342, 
    5343, 
    5344, 
    5345, 
    5346, 
    5348, 
    5349, 
    5350, 
    5351, 
    5352, 
    5356, 
    5357, 
    5358, 
    5359, 
    5361, 
    5362, 
    5363, 
    5364, 
    5365, 
    5366, 
    5367, 
    5368, 
    5369, 
    5370, 
    5371, 
    5372, 
    5374, 
    5375, 
    5376, 
    5377, 
    5378, 
    5382, 
    5383, 
    5384, 
    5385, 
    5387, 
    5388, 
    5389, 
    5390, 
    5391, 
    5392, 
    5393, 
    5394, 
    5395, 
    5396, 
    5397, 
    5398, 
    5399, 
    5400, 
    5401, 
    5402, 
    5403, 
    5404, 
    5405, 
    5406, 
    5408, 
    5409, 
    5410, 
    5411, 
    5412, 
    5416, 
    5417, 
    5418, 
    5419, 
    5421, 
    5422, 
    5423, 
    5424, 
    5425, 
    5426, 
    5427, 
    5428, 
    5429, 
    5430, 
    5431, 
    5432, 
    5434, 
    5435, 
    5436, 
    5437, 
    5438, 
    5442, 
    5443, 
    5444, 
    5445, 
    5447, 
    5448, 
    5449, 
    5450, 
    5451, 
    5452, 
    5453, 
    5454, 
    5455, 
    5456, 
    5457, 
    5458, 
    5459, 
    5460, 
    5461, 
    5462, 
    5463, 
    5464, 
    5465, 
    5466, 
    5468, 
    5469, 
    5470, 
    5471, 
    5472, 
    5476, 
    5477, 
    5478, 
    5479, 
    5481, 
    5482, 
    5483, 
    5484, 
    5485, 
    5486, 
    5487, 
    5488, 
    5489, 
    5490, 
    5491, 
    5492, 
    5494, 
    5495, 
    5496, 
    5497, 
    5498, 
    5502, 
    5503, 
    5504, 
    5505, 
    5507, 
    5508, 
    5509, 
    5510, 
    5511, 
    5512, 
    5513, 
    5514, 
    5515, 
    5516, 
    5517, 
    5518, 
    5519, 
    5520, 
    5521, 
    5522, 
    5523, 
    5524, 
    5525, 
    5526, 
    5528, 
    5529, 
    5530, 
    5531, 
    5532, 
    5536, 
    5537, 
    5538, 
    5539, 
    5541, 
    5542, 
    5543, 
    5544, 
    5545, 
    5546, 
    5547, 
    5548, 
    5549, 
    5550, 
    5551, 
    5552, 
    5554, 
    5555, 
    5556, 
    5557, 
    5558, 
    5562, 
    5563, 
    5564, 
    5565, 
    5567, 
    5568, 
    5569, 
    5570, 
    5571, 
    5572, 
    5573, 
    5574, 
    5575, 
    5576, 
    5577, 
    5578, 
    5579, 
    5580, 
    5581, 
    5582, 
    5583, 
    5584, 
    5585, 
    5586, 
    5588, 
    5589, 
    5590, 
    5591, 
    5592, 
    5596, 
    5597, 
    5598, 
    5599, 
    5601, 
    5602, 
    5603, 
    5604, 
    5605, 
    5606, 
    5607, 
    5608, 
    5609, 
    5610, 
    5611, 
    5612, 
    5614, 
    5615, 
    5616, 
    5617, 
    5618, 
    5622, 
    5623, 
    5624, 
    5625, 
    5627, 
    5628, 
    5629, 
    5630, 
    5631, 
    5632, 
    5633, 
    5634, 
    5635, 
    5636, 
    5637, 
    5638, 
    5639, 
    5640, 
    5641, 
    5642, 
    5643, 
    5644, 
    5645, 
    5646, 
    5648, 
    5649, 
    5650, 
    5651, 
    5652, 
    5656, 
    5657, 
    5658, 
    5659, 
    5661, 
    5662, 
    5663, 
    5664, 
    5665, 
    5666, 
    5667, 
    5668, 
    5669, 
    5670, 
    5671, 
    5672, 
    5674, 
    5675, 
    5676, 
    5677, 
    5678, 
    5682, 
    5683, 
    5684, 
    5685, 
    5687, 
    5688, 
    5689, 
    5690, 
    5691, 
    5692, 
    5693, 
    5694, 
    5695, 
    5696, 
    5697, 
    5698, 
    5699, 
    5700, 
    5701, 
    5702, 
    5703, 
    5704, 
    5705, 
    5706, 
    5708, 
    5709, 
    5710, 
    5711, 
    5712, 
    5716, 
    5717, 
    5718, 
    5719, 
    5721, 
    5722, 
    5723, 
    5724, 
    5725, 
    5726, 
    5727, 
    5728, 
    5729, 
    5730, 
    5731, 
    5732, 
    5734, 
    5735, 
    5736, 
    5737, 
    5738, 
    5742, 
    5743, 
    5744, 
    5745, 
    5747, 
    5748, 
    5749, 
    5750, 
    5751, 
    5752, 
    5753, 
    5754, 
    5755, 
    5756, 
    5757, 
    5758, 
    5759, 
    5760, 
    5761, 
    5762, 
    5763, 
    5764, 
    5765, 
    5766, 
    5768, 
    5769, 
    5770, 
    5771, 
    5772, 
    5776, 
    5777, 
    5778, 
    5779, 
    5781, 
    5782, 
    5783, 
    5784, 
    5785, 
    5786, 
    5787, 
    5788, 
    5789, 
    5790, 
    5791, 
    5792, 
    5794, 
    5795, 
    5796, 
    5797, 
    5798, 
    5802, 
    5803, 
    5804, 
    5805, 
    5807, 
    5808, 
    5809, 
    5810, 
    5811, 
    5812, 
    5813, 
    5814, 
    5815, 
    5816, 
    5817, 
    5818, 
    5819, 
    5820, 
    5821, 
    5822, 
    5823, 
    5824, 
    5825, 
    5826, 
    5828, 
    5829, 
    5830, 
    5831, 
    5832, 
    5836, 
    5837, 
    5838, 
    5839, 
    5841, 
    5842, 
    5843, 
    5844, 
    5845, 
    5846, 
    5847, 
    5848, 
    5849, 
    5850, 
    5851, 
    5852, 
    5854, 
    5855, 
    5856, 
    5857, 
    5858, 
    5862, 
    5863, 
    5864, 
    5865, 
    5867, 
    5868, 
    5869, 
    5870, 
    5871, 
    5872, 
    5873, 
    5874, 
    5875, 
    5876, 
    5877, 
    5878, 
    5879, 
    5880, 
    5881, 
    5882, 
    5883, 
    5884, 
    5885, 
    5886, 
    5888, 
    5889, 
    5890, 
    5891, 
    5892, 
    5896, 
    5897, 
    5898, 
    5899, 
    5901, 
    5902, 
    5903, 
    5904, 
    5905, 
    5906, 
    5907, 
    5908, 
    5909, 
    5910, 
    5911, 
    5912, 
    5914, 
    5915, 
    5916, 
    5917, 
    5918, 
    5922, 
    5923, 
    5924, 
    5925, 
    5927, 
    5928, 
    5929, 
    5930, 
    5931, 
    5932, 
    5933, 
    5934, 
    5935, 
    5936, 
    5937, 
    5938, 
    5939, 
    5940, 
    5941, 
    5942, 
    5943, 
    5944, 
    5945, 
    5946, 
    5948, 
    5949, 
    5950, 
    5951, 
    5952, 
    5956, 
    5957, 
    5958, 
    5959, 
    5961, 
    5962, 
    5963, 
    5964, 
    5965, 
    5966, 
    5967, 
    5968, 
    5969, 
    5970, 
    5971, 
    5972, 
    5974, 
    5975, 
    5976, 
    5977, 
    5978, 
    5982, 
    5983, 
    5984, 
    5985, 
    5987, 
    5988, 
    5989, 
    5990, 
    5991, 
    5992, 
    5993, 
    5994, 
    5995, 
    5996, 
    5997, 
    5998, 
    5999, 
    6000, 
    6001, 
    6002, 
    6003, 
    6004, 
    6005, 
    6006, 
    6008, 
    6009, 
    6010, 
    6011, 
    6012, 
    6016, 
    6017, 
    6018, 
    6019, 
    6021, 
    6022, 
    6023, 
    6024, 
    6025, 
    6026, 
    6027, 
    6028, 
    6029, 
    6030, 
    6031, 
    6032, 
    6034, 
    6035, 
    6036, 
    6037, 
    6038, 
    6042, 
    6043, 
    6044, 
    6045, 
    6047, 
    6048, 
    6049, 
    6050, 
    6051, 
    6052, 
    6053, 
    6054, 
    6055, 
    6056, 
    6057, 
    6058, 
    6059, 
    6060, 
    6061, 
    6062, 
    6063, 
    6064, 
    6065, 
    6066, 
    6068, 
    6069, 
    6070, 
    6071, 
    6072, 
    6076, 
    6077, 
    6078, 
    6079, 
    6081, 
    6082, 
    6083, 
    6084, 
    6085, 
    6086, 
    6087, 
    6088, 
    6089, 
    6090, 
    6091, 
    6092, 
    6094, 
    6095, 
    6096, 
    6097, 
    6098, 
    6102, 
    6103, 
    6104, 
    6105, 
    6107, 
    6108, 
    6109, 
    6110, 
    6111, 
    6112, 
    6113, 
    6114, 
    6115, 
    6116, 
    6117, 
    6118, 
    6119, 
    6120, 
    6121, 
    6122, 
    6123, 
    6124, 
    6125, 
    6126, 
    6128, 
    6129, 
    6130, 
    6131, 
    6132, 
    6136, 
    6137, 
    6138, 
    6139, 
    6141, 
    6142, 
    6143, 
    6144, 
    6145, 
    6146, 
    6147, 
    6148, 
    6149, 
    6150, 
    6151, 
    6152, 
    6154, 
    6155, 
    6156, 
    6157, 
    6158, 
    6162, 
    6163, 
    6164, 
    6165, 
    6167, 
    6168, 
    6169, 
    6170, 
    6171, 
    6172, 
    6173, 
    6174, 
    6175, 
    6176, 
    6177, 
    6178, 
    6179, 
    6180, 
    6181, 
    6182, 
    6183, 
    6184, 
    6185, 
    6186, 
    6188, 
    6189, 
    6190, 
    6191, 
    6192, 
    6196, 
    6197, 
    6198, 
    6199, 
    6201, 
    6202, 
    6203, 
    6204, 
    6205, 
    6206, 
    6207, 
    6208, 
    6209, 
    6210, 
    6211, 
    6212, 
    6214, 
    6215, 
    6216, 
    6217, 
    6218, 
    6222, 
    6223, 
    6224, 
    6225, 
    6227, 
    6228, 
    6229, 
    6230, 
    6231, 
    6232, 
    6233, 
    6234, 
    6235, 
    6236, 
    6237, 
    6238, 
    6239, 
    6240, 
    6241, 
    6242, 
    6243, 
    6244, 
    6245, 
    6246, 
    6248, 
    6249, 
    6250, 
    6251, 
    6252, 
    6256, 
    6257, 
    6258, 
    6259, 
    6261, 
    6262, 
    6263, 
    6264, 
    6265, 
    6266, 
    6267, 
    6268, 
    6269, 
    6270, 
    6271, 
    6272, 
    6274, 
    6275, 
    6276, 
    6277, 
    6278, 
    6282, 
    6283, 
    6284, 
    6285, 
    6287, 
    6288, 
    6289, 
    6290, 
    6291, 
    6292, 
    6293, 
    6294, 
    6295, 
    6296, 
    6297, 
    6298, 
    6299, 
    6300, 
    6301, 
    6302, 
    6303, 
    6304, 
    6305, 
    6306, 
    6308, 
    6309, 
    6310, 
    6311, 
    6312, 
    6316, 
    6317, 
    6318, 
    6319, 
    6321, 
    6322, 
    6323, 
    6324, 
    6325, 
    6326, 
    6327, 
    6328, 
    6329, 
    6330, 
    6331, 
    6332, 
    6334, 
    6335, 
    6336, 
    6337, 
    6338, 
    6342, 
    6343, 
    6344, 
    6345, 
    6347, 
    6348, 
    6349, 
    6350, 
    6351, 
    6352, 
    6353, 
    6354, 
    6355, 
    6356, 
    6357, 
    6358, 
    6359, 
    6360, 
    6361, 
    6362, 
    6363, 
    6364, 
    6365, 
    6366, 
    6367, 
    6368, 
    6369, 
    6370, 
    6371, 
    6372, 
    6373, 
    6374, 
    6375, 
    6376, 
    6377, 
    6378, 
    6379, 
    6380, 
    6381, 
    6382, 
    6383, 
    6384, 
    6385, 
    6386, 
    6387, 
    6388, 
    6389, 
    6390, 
    6391, 
    6392, 
    6393, 
    6394, 
    6395, 
    6396, 
    6397, 
    6399, 
    6400, 
    6401, 
    6402, 
    6403, 
    6407, 
    6408, 
    6409, 
    6410, 
    6412, 
    6413, 
    6414, 
    6415, 
    6416, 
    6417, 
    6418, 
    6419, 
    6420, 
    6421, 
    6422, 
    6423, 
    6425, 
    6426, 
    6427, 
    6428, 
    6429, 
    6433, 
    6434, 
    6435, 
    6436, 
    6438, 
    6439, 
    6440, 
    6441, 
    6442, 
    6443, 
    6444, 
    6445, 
    6446, 
    6447, 
    6448, 
    6449, 
    6450, 
    6451, 
    6452, 
    6453, 
    6454, 
    6455, 
    6456, 
    6457, 
    6458, 
    6459, 
    6460, 
    6461, 
    6462, 
    6463, 
    6464, 
    6465, 
    6466, 
    6467, 
    6468, 
    6469, 
    6470, 
    6471, 
    6472, 
    6473, 
    6474, 
    6475, 
    6476, 
    6477, 
    6478, 
    6479, 
    6480, 
    6481, 
    6482, 
    6483, 
    6484, 
    6485, 
    6486, 
    6487, 
    6488, 
    6489, 
    6490, 
    6491, 
    6492, 
    6493, 
    6494, 
    6495, 
    6496, 
    6497, 
    6498, 
    6499, 
    6501, 
    6502, 
    6503, 
    6504, 
    6508, 
    6509, 
    6510, 
    6511, 
    6513, 
    6514, 
    6515, 
    6516, 
    6517, 
    6518, 
    6519, 
    6520, 
    6521, 
    6522, 
    6523, 
    6525, 
    6526, 
    6527, 
    6528, 
    6532, 
    6533, 
    6534, 
    6535, 
    6537, 
    6538, 
    6539, 
    6540, 
    6541, 
    6542, 
    6543, 
    6544, 
    6545, 
    6546, 
    6547, 
    6548, 
    6549, 
    6550, 
    6551, 
    6552, 
    6553, 
    6554, 
    6555, 
    6556, 
    6557, 
    6558, 
    6559, 
    6560, 
    6561, 
    6562, 
    6563, 
    6564, 
    6565, 
    6566, 
    6567, 
    6568, 
    6569, 
    6570, 
    6571, 
    6572, 
    6573, 
    6574, 
    6575, 
    6576, 
    6577, 
    6578, 
    6579, 
    6580, 
    6581, 
    6582, 
    6583, 
    6584, 
    6585, 
    6586, 
    6587, 
    6588, 
    6589, 
    6590, 
    6591, 
    6592, 
    6593, 
    6595, 
    6596, 
    6597, 
    6598, 
    6602, 
    6603, 
    6604, 
    6605, 
    6607, 
    6608, 
    6609, 
    6610, 
    6611, 
    6612, 
    6613, 
    6614, 
    6615, 
    6616, 
    6617, 
    6619, 
    6620, 
    6621, 
    6622, 
    6626, 
    6627, 
    6628, 
    6629, 
    6631, 
    6632, 
    6633, 
    6634, 
    6635, 
    6636, 
    6637, 
    6638, 
    6639, 
    6640, 
    6641, 
    6642, 
    6643, 
    6644, 
    6645, 
    6646, 
    6647, 
    6648, 
    6649, 
    6650, 
    6651, 
    6652, 
    6653, 
    6654, 
    6655, 
    6656, 
    6657, 
    6658, 
    6659, 
    6660, 
    6661, 
    6662, 
    6663, 
    6664, 
    6665, 
    6666, 
    6667, 
    6668, 
    6669, 
    6670, 
    6671, 
    6672, 
    6673, 
    6674, 
    6675, 
    6676, 
    6677, 
    6678, 
    6679, 
    6680, 
    6681, 
    6682, 
    6683, 
    6684, 
    6685, 
    6686, 
    6687, 
    6689, 
    6690, 
    6691, 
    6692, 
    6696, 
    6697, 
    6698, 
    6699, 
    6701, 
    6702, 
    6703, 
    6704, 
    6705, 
    6706, 
    6707, 
    6708, 
    6709, 
    6710, 
    6711, 
    6713, 
    6714, 
    6715, 
    6716, 
    6720, 
    6721, 
    6722, 
    6723, 
    6725, 
    6726, 
    6727, 
    6728, 
    6729, 
    6730, 
    6731, 
    6732, 
    6733, 
    6734, 
    6735, 
    6736, 
    6737, 
    6738, 
    6739, 
    6740, 
    6741, 
    6742, 
    6743, 
    6744, 
    6745, 
    6746, 
    6747, 
    6748, 
    6749, 
    6750, 
    6751, 
    6752, 
    6753, 
    6754, 
    6755, 
    6756, 
    6757, 
    6758, 
    6759, 
    6760, 
    6761, 
    6762, 
    6763, 
    6764, 
    6765, 
    6766, 
    6767, 
    6768, 
    6769, 
    6770, 
    6771, 
    6772, 
    6773, 
    6774, 
    6775, 
    6776, 
    6777, 
    6778, 
    6779, 
    6780, 
    6781, 
    6783, 
    6784, 
    6785, 
    6786, 
    6790, 
    6791, 
    6792, 
    6793, 
    6795, 
    6796, 
    6797, 
    6798, 
    6799, 
    6800, 
    6801, 
    6802, 
    6803, 
    6804, 
    6805, 
    6807, 
    6808, 
    6809, 
    6810, 
    6814, 
    6815, 
    6816, 
    6817, 
    6819, 
    6820, 
    6821, 
    6822, 
    6823, 
    6824, 
    6825, 
    6826, 
    6827, 
    6828, 
    6829, 
    6830, 
    6831, 
    6832, 
    6833, 
    6834, 
    6835, 
    6836, 
    6837, 
    6838, 
    6839, 
    6840, 
    6841, 
    6842, 
    6843, 
    6844, 
    6845, 
    6846, 
    6847, 
    6848, 
    6849, 
    6850, 
    6851, 
    6852, 
    6853, 
    6854, 
    6855, 
    6856, 
    6857, 
    6858, 
    6859, 
    6860, 
    6861, 
    6862, 
    6863, 
    6864, 
    6865, 
    6866, 
    6867, 
    6868, 
    6869, 
    6870, 
    6871, 
    6872, 
    6874, 
    6875, 
    6876, 
    6877, 
    6881, 
    6882, 
    6883, 
    6884, 
    6886, 
    6887, 
    6888, 
    6889, 
    6890, 
    6891, 
    6892, 
    6893, 
    6894, 
    6895, 
    6896, 
    6898, 
    6899, 
    6900, 
    6901, 
    6905, 
    6906, 
    6907, 
    6908, 
    6910, 
    6911, 
    6912, 
    6913, 
    6914, 
    6915, 
    6916, 
    6917, 
    6918, 
    6919, 
    6920, 
    6921, 
    6922, 
    6923, 
    6924, 
    6925, 
    6926, 
    6927, 
    6928, 
    6929, 
    6930, 
    6931, 
    6932, 
    6933, 
    6934, 
    6935, 
    6936, 
    6937, 
    6938, 
    6939, 
    6940, 
    6941, 
    6942, 
    6943, 
    6944, 
    6945, 
    6946, 
    6947, 
    6948, 
    6949, 
    6950, 
    6951, 
    6952, 
    6953, 
    6954, 
    6955, 
    6956, 
    6957, 
    6958, 
    6959, 
    6960, 
    6961, 
    6962, 
    6963, 
    6965, 
    6966, 
    6967, 
    6968, 
    6972, 
    6973, 
    6974, 
    6975, 
    6977, 
    6978, 
    6979, 
    6980, 
    6981, 
    6982, 
    6983, 
    6984, 
    6985, 
    6986, 
    6987, 
    6989, 
    6990, 
    6991, 
    6992, 
    6996, 
    6997, 
    6998, 
    6999, 
    7001, 
    7002, 
    7003, 
    7004, 
    7005, 
    7006, 
    7007, 
    7008, 
    7009, 
    7010, 
    7011, 
    7012, 
    7013, 
    7014, 
    7015, 
    7016, 
    7017, 
    7018, 
    7019, 
    7020, 
    7021, 
    7022, 
    7023, 
    7024, 
    7025, 
    7026, 
    7027, 
    7028, 
    7029, 
    7030, 
    7031, 
    7032, 
    7033, 
    7034, 
    7035, 
    7036, 
    7037, 
    7038, 
    7039, 
    7040, 
    7041, 
    7042, 
    7043, 
    7044
  ], 
  "heads": [[2183, 0, 0]], 
  "attrs": {"mxnet_version": ["int", 10301]}
}